checkpoints/actor.pkl (torch, 492639 bytes, 5 tensors)

fc1.weight f4 [400, 4]
000000 0c 1b 02 3f ba e7 55 3d 02 d1 1d 3f a8 9b ed bd
       0.5082252 0.052222945 0.61647046 -0.11601955
000010 d6 49 18 3f 46 40 23 3e de 6b a6 be 9b ee 55 be
       0.59487665 0.15942487 -0.3250417 -0.20891802
000020 67 e0 8d 3d 50 4f 1e bf 0b 77 b0 3e 50 b6 17 bf
       0.06927567 -0.6183977 0.34465823 -0.5926256
000030 c4 5a 25 3f 73 5a 9d 3e cb 19 9a 3e 81 8b a5 3e
       0.6459162 0.3073307 0.30097803 0.32332996
000040 8d 92 bc 3e 26 e0 8f bc 3c c1 19 3f b9 ed 43 bf
       0.3683056 -0.017562937 0.6006048 -0.7653461
000050 f9 f2 36 bf 8d 7f 58 be 5c 8c f5 be 7d 5a 1e 3e
       -0.71464497 -0.21142407 -0.47958648 0.15464206
000060 e7 c3 29 3f 18 0c 3a 3e ce 12 67 bf 94 0d d1 be
       0.6631455 0.18168676 -0.9026307 -0.40830672
000070 be 7f de be 3c 61 0b bf cd eb 7c 3e bf f0 15 bd
       -0.43456835 -0.5444524 0.24699326 -0.036606546
000080 46 80 1d bf f3 46 fc bd 3f f9 3a bf 03 2d 87 bf
       -0.61523855 -0.1231822 -0.7303657 -1.0560611
000090 5a e7 ff bd 85 7c 66 3e 15 ea fa 3d 19 af 11 bf
       -0.12495299 0.22508438 0.12251679 -0.569078
0000a0 3a f1 9d 3e 4b f0 0a bf 4d 85 82 3f 0b 3f 22 bd
       0.30848104 -0.5427291 1.019693 -0.039610904
0000b0 2e 8c 72 bc 9a 27 82 be 4b 4c 86 be 36 b9 41 be
       -0.014803929 -0.2542084 -0.26230082 -0.18918309
0000c0 11 aa 10 be e6 90 5a bf 97 1d 4c 3f f7 8e ed 3c
       -0.14127375 -0.8537735 0.7973265 0.028998835
0000d0 a5 03 94 bd 99 95 b2 be 96 a9 5a 3e a4 74 7c bf
       -0.07227258 -0.3487976 0.21353754 -0.9861548
0000e0 7d 47 89 3d 22 a7 ec bc 90 9b 36 3f cf a8 4c be
       0.067030884 -0.028888289 0.7133112 -0.1998627
0000f0 be 7b f4 3e 3b e3 64 be 26 d9 23 3d de 60 ea 3e
       0.47750658 -0.22352307 0.04000201 0.4577703
000100 c8 63 e0 3e 24 89 c0 be 27 5b e2 3e 54 bf 15 3f
       0.43826127 -0.3760463 0.4421017 0.5849507
000110 4e 4f b3 bd e7 57 26 be de 8f c0 be b7 dc 52 3d
       -0.087553605 -0.1624447 -0.37609762 0.05148002
000120 5a 00 18 be f6 15 72 3c 9f d1 bf 3e 3e 42 10 3f
       -0.14843884 0.014775744 0.37464616 0.5635108
000130 34 c0 a1 3e a9 7e 23 3e 33 82 04 3f f7 83 32 be
       0.31591952 0.15966286 0.5176117 -0.17433153
000140 35 4f 25 3e 4d f0 d6 be f5 7f 40 bf 86 b0 a3 be
       0.16143496 -0.4198021 -0.75195247 -0.31970614
000150 ff 8a 4e bf bc 94 f7 be b0 91 74 3f cc 60 a8 3d
       -0.8068084 -0.48355663 0.955348 0.082215875
000160 21 31 ca be 4a 12 4f 3d 92 a0 2d bf 44 cf c2 3e
       -0.39490607 0.05055455 -0.67823136 0.38048756
000170 09 51 06 3f 8d 72 b2 3e 2f ec 08 3e 40 85 91 be
       0.524674 0.3485302 0.13371347 -0.28421974
000180 ff d0 71 3e 5c 8a 19 be 97 7d 20 be 61 d8 ec be
       0.23614882 -0.14994186 -0.15672909 -0.46258834
000190 68 40 0e 3e 2f e8 a2 3c 46 f9 3a be 59 bd 40 be
       0.13891757 0.019886104 -0.18259153 -0.1882223
0001a0 22 61 8d be 4e 65 ce be e6 76 ea 3e d1 c8 e0 3d
       -0.2761317 -0.40311664 0.45793837 0.10975803
0001b0 27 39 31 3f a3 80 14 3f 94 4d 7d be ad 5c b4 3e
       0.6922783 0.58008784 -0.24736625 0.35226956
0001c0 6b fe cb 3e 75 2c 6a bb 6c 91 46 3f ef c5 32 3f
       0.39842543 -0.0035732065 0.77565646 0.6983327
0001d0 24 0b 50 bf a1 cd 5e 3f af 66 12 bf 71 f6 07 bd
       -0.81267 0.87032515 -0.5718793 -0.03319401
0001e0 2b 40 26 bf 86 11 98 3e c6 8b 51 be fc 98 28 3f
       -0.6494166 0.2970087 -0.20463476 0.65858436
0001f0 60 66 81 be c4 6d 7e 3d f5 d4 83 3f 04 e9 83 3e
       -0.25273418 0.0621164 1.0299364 0.25763714
000200 88 9c 2c bf 4a 1a a8 3d fa 12 00 3c b8 c2 0b 3c
       -0.6742635 0.08208139 0.007817024 0.008530311
000210 25 5b 84 3e a9 dd 8c 3e f9 92 9e bf 29 45 35 be
       0.25850788 0.27512863 -1.2388602 -0.17702164
000220 c6 cc 0b bf 0b 93 23 bf b6 d1 49 3d 26 87 e7 3a
       -0.54609334 -0.63896245 0.04927226 0.0017664179
000230 5b 64 12 bf 84 96 5e 3e 4c c9 bc be a4 fe 3f bf
       -0.5718438 0.21737105 -0.36872327 -0.74997926
000240 e9 b0 fc 3d d6 f3 13 bf cb 9c f0 be 7b 0f 27 3f
       0.123384304 -0.5779394 -0.46994624 0.65257996
000250 ca 2a b4 be 2e 1f 54 be 5c da a1 3f c6 2c 44 3e
       -0.35188895 -0.20715019 1.2644763 0.19157705
000260 bc 54 16 3f 18 ee af 3e 76 ed c2 3e 69 2d b9 3d
       0.58723044 0.3436134 0.38071793 0.090418644
000270 3a 1e 61 3e 95 57 9c 3d cb b7 0d be 7b b5 f7 3d
       0.21984187 0.076338924 -0.13839643 0.120951615
000280 0f 2d d1 3b ab 7d db be 10 d4 f4 bc 22 19 b3 3e
       0.006383545 -0.42869315 -0.029886276 0.34980112
000290 32 81 b2 3d de ba 69 be 36 75 bc bc 85 a4 34 3d
       0.08716048 -0.2282519 -0.02300511 0.04410221
0002a0 1b 6e 1c 3d d0 3f d8 be 28 83 23 3f 1a 26 e1 be
       0.038190942 -0.42236185 0.63872004 -0.43974382
0002b0 2d 78 27 bf ee d4 cc be 8e 7f a9 3d 64 12 80 bd
       -0.6541775 -0.40006202 0.08276282 -0.06253508
0002c0 ff 26 aa bd bd 4c f8 bd 9d ac 75 3e a0 da 71 3d
       -0.08308219 -0.12124012 0.23991628 0.059046388
0002d0 a6 17 8f bc 72 dd 66 3e 6c bb 78 bf 3a e0 07 3f
       -0.017467331 0.22545412 -0.97160983 0.5307652
0002e0 66 cd 8c be 92 e3 99 3c d9 03 32 bf 6c f0 ef be
       -0.27500457 0.018785272 -0.6953712 -0.46863115
0002f0 c3 b5 f3 3d 0f 5e f2 be 67 f4 49 3f e9 96 96 3e
       0.11899903 -0.47337386 0.78888553 0.2941201
000300 65 a5 1e bf 35 be f0 be 06 29 a8 3b 0d a3 18 be
       -0.6197112 -0.47020116 0.0051318435 -0.14905949
000310 8f 20 07 bf 1e 0d bf bd 0f 03 96 bd 7e df 8c 3c
       -0.52784055 -0.09328674 -0.07324802 0.017196413
000320 67 7f 17 3f 82 b2 de 3e ff f2 a9 bd 83 99 54 3e
       0.59178776 0.43495566 -0.08298301 0.20761685
000330 33 7a a8 be 9c a6 65 be 33 8b 8b be 53 0d b0 bd
       -0.3290573 -0.22426838 -0.27254638 -0.085962914
000340 e5 21 9d 3d 43 2c 10 3e 90 59 ad bf 96 1b 12 3e
       0.076724805 0.14079385 -1.3542957 0.14268336
000350 f4 3c a9 bf d7 fa 5d be 31 1a 02 3e bd 10 34 3e
       -1.3221726 -0.21677719 0.12705304 0.1758451
000360 7e 48 96 be 28 dd d2 bd 08 09 3f be 57 1e ce bd
       -0.29352182 -0.102960885 -0.18655789 -0.100643806
000370 f5 9a 3d 3f a4 e8 a7 3e 92 33 3e bf d4 98 58 be
       0.7406457 0.32794678 -0.7429744 -0.2115205
000380 cb 6b e0 be 4e e8 51 3d 3e 7a e7 3e 2f 02 20 3e
       -0.4383224 0.051246934 0.4521045 0.15625833
000390 70 93 06 3f f5 c0 25 be 11 cf a3 3e 95 2e 8c 3d
       0.5256872 -0.16186889 0.31993917 0.06844822
0003a0 42 9f 88 3e 9a 6b ab 3e 86 0c 2d 3f e2 1c 20 3e
       0.26684004 0.3348053 0.67597234 0.15636018
0003b0 aa 09 63 bf 06 44 44 bf fb b8 16 3e 86 4a 1a be
       -0.8868662 -0.76666296 0.14719002 -0.15067491
0003c0 2d 09 56 3e bc 07 9a bc 66 68 63 3e 3b 41 b1 3e
       0.20901938 -0.018802516 0.22207794 0.3462008
0003d0 04 92 be bd 34 55 9a 3e de 24 bf 3e fd 7d fb be
       -0.09305194 0.3014313 0.37332815 -0.4911956
0003e0 8e 63 18 be db e4 1e bf 7c b6 7e 3d e2 7c 17 bd
       -0.14881727 -0.62067956 0.06218575 -0.036984332
0003f0 08 7b 88 3d 6f 93 6d 3e 6f 9a 5a bd 16 94 ad 3d
       0.06664091 0.23200773 -0.053369936 0.08475511

fc1.bias f4 [400]
000000 a8 ff 65 3e a2 ab 40 3d 70 50 29 3f de 98 29 bd
       0.22460806 0.04703868 0.6613836 -0.04140555
000010 ba 01 62 3c e9 d6 86 be de 42 3c bf 1b 15 72 3e
       0.013794357 -0.26335838 -0.7353953 0.23640864
000020 8d 08 68 3c 7c cb b6 3d 29 f8 a5 3e 2e 2a 63 3e
       0.014162195 0.0892553 0.32415894 0.22184059
000030 eb 10 b8 3e 2b a8 e0 3d 9e 99 0e be 18 f8 11 3e
       0.35950407 0.109695755 -0.13925788 0.14254797
000040 09 e4 9b 3e 23 e5 9b 3c 7b a7 5c 3e 9a 72 6a 3e
       0.30447415 0.01903016 0.21548264 0.2289528
000050 72 a9 62 3d ca 3f 04 3f d5 09 29 3e 9a ce 65 3d
       0.055337377 0.51659834 0.16507657 0.056105234
000060 b9 8e f4 3e cf 10 ac 3e a0 67 42 3e 72 db fc 3d
       0.4776514 0.33606574 0.18984842 0.12346543
000070 68 32 f3 bc 22 e8 1b 3d fa 65 0a 3f 22 04 19 3e
       -0.029687122 0.038063176 0.54061854 0.14942983
000080 78 45 04 3f 57 27 a0 3d 1f cd e0 be 23 8c c8 3d
       0.516685 0.078200035 -0.43906495 0.09792354
000090 8e 2b f4 3e 71 f2 5e 3e 48 16 ce 3d 45 67 27 3f
       0.4768948 0.21772172 0.100628436 0.6539195
0000a0 25 a1 14 3e 0f 2e 62 3e f1 18 ee 3e c7 b6 96 3e
       0.14514597 0.22087882 0.46503404 0.29436323
0000b0 03 8a 17 be 37 69 4d bc ac af 20 3c 7c df 3f 3e
       -0.14798741 -0.012537292 0.009807508 0.18737596
0000c0 0d a9 0b 3c 11 7a 2a bf b1 9b 80 3e 93 a8 9a 3e
       0.008524192 -0.6659251 0.25118783 0.30206737
0000d0 94 50 e6 bb 9e 17 c7 3a 88 97 dc 3e c8 92 81 be
       -0.0070286486 0.0015189534 0.4308436 -0.25307298
0000e0 6e 28 0f 3f ed a7 4b 3f 03 25 fa 3e de 13 c4 3e
       0.55921066 0.7955311 0.48856363 0.38296407
0000f0 92 72 51 3e af 9b 95 3d db f7 89 3d 51 47 1b 3e
       0.20453861 0.07305085 0.06736728 0.15163924
000100 d8 61 03 3f 35 1a 22 bd 0a 56 09 3f d6 29 59 bf
       0.5132117 -0.039575774 0.5364691 -0.8482946
000110 6b 83 29 3e 3d 5d d1 be c6 05 bb 3e a3 4d c2 3c
       0.16554038 -0.40891448 0.36527842 0.02371866
000120 4a e2 1f 3e 8e d7 ec 3e 0f 60 9e 3e b6 e4 c7 be
       0.15613666 0.46258205 0.30932662 -0.3904168
000130 d5 09 54 3e e1 79 e1 3e b2 55 85 be 22 d2 02 bd
       0.20706876 0.440383 -0.26041943 -0.03193868
000140 8c f6 e4 3e 34 63 e2 3d 24 0a 64 bc a3 86 45 3d
       0.4471935 0.11054078 -0.013918433 0.048224103
000150 70 26 97 3e a0 10 54 3f ce fc d0 bb f6 a2 40 3e
       0.29521513 0.8283787 -0.006377793 0.18812165
000160 a3 ff e1 3e 70 87 71 3c 74 c4 2f 3d b0 1a 7c 3e
       0.44140348 0.0147417635 0.04291196 0.24619555
000170 e4 15 39 3e 90 1e 4f 3e bb b6 c1 3c f3 53 48 3d
       0.18074757 0.20226502 0.023646703 0.048908185
000180 02 d4 f9 3e c0 72 dc 3c 3f 68 03 bf f4 87 98 3c
       0.48794562 0.026910186 -0.5133094 0.018619515
000190 b9 a5 8e 3b d6 3b d1 3e a1 4c 8c 3e 05 fa 3f 3e
       0.004353252 0.40865964 0.27402213 0.18747719
0001a0 7f 6c e7 3d a1 37 81 3e e2 a8 3a 3e 6f 4e d1 3e
       0.11299991 0.25237754 0.18228486 0.40880153
0001b0 f8 41 c5 bb d6 f1 02 3d 33 9c 29 be 62 0a 8a 3e
       -0.006019827 0.031968914 -0.16563492 0.26961046
0001c0 90 c9 0a bf b6 64 54 3d 04 46 0a 3f 61 4f 37 3f
       -0.5421381 0.051853858 0.54013085 0.716055
0001d0 ed 2c ad 3d 21 61 6b 3e 93 00 00 3e 8c 95 77 3d
       0.084558345 0.2298627 0.12500219 0.060445353
0001e0 b9 4e e5 3e e8 73 cf 3e 86 4d 01 3f 74 53 a8 3e
       0.44786623 0.40518117 0.50508916 0.3287617
0001f0 29 bd ef 3e 2d 3d 9a be a9 e2 39 3e 79 4b 0d bc
       0.46824005 -0.30124798 0.1815287 -0.008623951
000200 bd 63 8f 3d 5d 75 ca bd 66 4d 01 3e 88 5a 9f 3e
       0.070014454 -0.098856665 0.12627181 0.31123757
000210 d8 4e a6 3e f3 1b 99 3d 74 e0 df 3e c7 d0 8f 3e
       0.32482028 0.07476034 0.43725932 0.28088972
000220 43 32 c3 3d 86 9b e8 3e fb a7 4d 3d 49 8d 82 bc
       0.09531071 0.45431155 0.050209027 -0.01593651
000230 7c e6 5e 3c 50 d7 5b 3e 55 76 de 3e aa e7 5f 3d
       0.013604756 0.21468854 0.43449655 0.05466429
000240 9d 78 3d 3f 4f 0f 40 3e 14 10 33 3e c1 28 ad 3e
       0.74012166 0.1875584 0.17486602 0.33820155
000250 22 d2 06 3f 12 df 99 3e 2e e2 a3 3d 70 89 1f 3d
       0.5266439 0.30053002 0.08002125 0.03894943
000260 1e a2 7f 3d 6f 41 9d 3e fe 16 13 3e 20 b9 80 3e
       0.062410466 0.30713984 0.1436424 0.2514124
000270 62 b7 68 3e 2f 31 8f 3e c5 dd 85 bd 15 4e 63 3e
       0.22726205 0.27967212 -0.0653644 0.22197755
000280 32 b1 ca 3e b1 be ab be 8a 0b 89 3e 3a 48 90 3d
       0.39588314 -0.33543923 0.26766616 0.07045026
000290 40 cd 72 3c 3c e2 26 3e 07 37 ba 3e 22 d0 5e 3e
       0.014819443 0.16297239 0.36370108 0.21759084
0002a0 fd e0 65 3e 76 63 b4 3e 63 38 3e 3e b9 43 1c 3d
       0.22449107 0.35232133 0.18576197 0.038150523
0002b0 75 f6 24 be ae 06 8d 3d fd a3 50 3e 5a 34 00 3f
       -0.16109641 0.0688604 0.20375057 0.5007988
0002c0 8c b8 42 3e 6a 24 8f 3d 2f 40 51 3e 33 39 3f 3e
       0.19015712 0.06989367 0.2043464 0.18674164
0002d0 33 f1 34 3d e8 22 db 3e 06 d8 17 3e 28 1a ca 3e
       0.044175338 0.4280007 0.148285 0.3947308
0002e0 1e b3 fe bb 5e 21 ad 3e 97 ca 1e be 8b 76 59 3d
       -0.0077728173 0.3381452 -0.1550697 0.053091567
0002f0 f4 f6 ba 3e 0d f1 cf be 5b d0 00 3e f3 be a6 3e
       0.36516535 -0.40613595 0.12579481 0.32567558
000300 de ef d8 3b 06 3f 7a 3c bb ec 71 be f8 df 3d 3e
       0.0066203913 0.015273815 -0.23625462 0.18542469
000310 b7 03 84 3e 29 95 4b 3f 2c 23 80 3e 37 fa b0 3e
       0.25784084 0.79524475 0.25026834 0.345659
000320 22 17 ec 3d 5f 15 38 3c f5 42 b5 3c 72 95 8f 3d
       0.1152785 0.011235564 0.022126654 0.07010926
000330 b2 9b 1f 3e e6 2a 7e 3d 27 9a c9 3d f0 3c 3a 3e
       0.15586737 0.06205263 0.09843855 0.18187308
000340 6d ea 0d 3e c7 cf 08 be ed cd 2d 3f 7a 07 d4 3e
       0.13858958 -0.13360511 0.6789234 0.41411954
000350 1d e2 20 3c d4 b2 91 3e 76 cd e9 3d 75 4f eb 3e
       0.009819535 0.28456748 0.11416142 0.45959058
000360 47 38 06 3f ba 11 de 3d 0a 38 61 3e 21 92 ce be
       0.5242962 0.10843225 0.21994033 -0.40345863
000370 90 14 05 3d f3 5b c2 3d f3 7a 58 be b1 58 81 be
       0.032490313 0.09490194 -0.21140651 -0.2526298
000380 24 01 c7 3e 8c a9 63 3e 4e 26 2b 3c 4c 66 fa 3e
       0.38868058 0.22232646 0.010446144 0.4890617
000390 9a 4b 21 3e b0 6b 2c 3d c6 a5 24 bf 0d 53 61 3e
       0.15751496 0.042094886 -0.6431545 0.22004338
0003a0 34 04 8f 3e e2 8a d0 3e 47 e7 da be d4 af bf be
       0.27932894 0.4073096 -0.42754576 -0.37438834
0003b0 77 33 63 3e c4 d3 0d 3e 2a 3e 06 3f 66 03 82 3e
       0.22187601 0.13850313 0.52438605 0.25393218
0003c0 c1 be 4c 3e 5f ba aa 3e b6 d0 a5 3e a8 f8 bb 3e
       0.19994642 0.33345315 0.32385796 0.36713147
0003d0 83 ad c7 3e 50 ed 79 3e 8b 94 94 3e b7 bb a6 3e
       0.38999566 0.24406934 0.2901958 0.3256509
0003e0 a3 f3 3c 3e 74 80 d6 3e 1b a9 68 3e 94 a6 15 3f
       0.18452315 0.41894877 0.22720759 0.58457303
0003f0 66 18 cf 3d 6e e7 08 3d 6f 44 36 be ff 97 68 3d
       0.101120755 0.033423834 -0.17799543 0.05678558

fc2.weight f4 [300, 400]
000000 53 0a d9 3d ab 47 c8 3d 2b 5a 21 bd 6d 3b fd bd
       0.10597672 0.097792946 -0.03939263 -0.1236485
000010 71 c1 d0 3d bc b8 24 3e 7c a0 a8 3d 79 b7 09 3e
       0.10193146 0.16086096 0.08233735 0.13448896
000020 87 e4 27 3f c4 c5 bc 3e 52 74 81 3d d3 fa 0e 3e
       0.6558308 0.36869633 0.063210145 0.1396287
000030 75 11 38 3e c1 07 2e be 2b d1 84 3d 52 83 38 3e
       0.1797541 -0.16995145 0.06485208 0.18018845
000040 59 01 63 3e bf 9f 69 be e9 0f 38 3e 95 83 21 be
       0.22168483 -0.22814845 0.17974819 -0.15772851
000050 f5 b1 a6 bb 14 d5 14 bc eb 22 04 3e cb ab c2 3c
       -0.005087132 -0.009084005 0.12903945 0.023763558
000060 47 69 84 bd 40 fe 8f 3b ca fb 09 bd 3c 9c cb bd
       -0.064653926 0.0043943226 -0.03368739 -0.09941909
000070 4d 33 0d be cc 86 dd be 42 5b 7a 3d 57 f4 f6 3d
       -0.13789101 -0.43266904 0.061122186 0.12058323
000080 26 7f f6 bc 93 0f 4e 3e 87 c3 cf 3d ed 83 7c be
       -0.030089926 0.20123129 0.10144716 -0.246597
000090 9d f9 bc 3d f6 19 87 3c a5 d9 2b 3e 5c 4d de 3d
       0.092272975 0.016491871 0.16782244 0.10854599
0000a0 30 10 d1 bc 1f 0d 43 3c 70 86 c7 3c 7e 74 71 3d
       -0.025520414 0.011904984 0.024356097 0.058948986
0000b0 ab 4e cb bd 7b a8 de bc d6 96 d5 bd 7b 48 a5 3d
       -0.09927114 -0.027179947 -0.1042916 0.08070465
0000c0 36 2c 04 3e d8 aa 2c 3e 83 1a 2a be e0 51 43 3e
       0.1290749 0.16862047 -0.16611676 0.19074202
0000d0 11 13 8d be 14 43 a4 be e4 46 21 bd 01 2a 8d bd
       -0.2755361 -0.32082427 -0.039374247 -0.06892777
0000e0 88 59 4a 3e 9f 81 e0 3d 1d 98 95 3d 54 0a c8 3d
       0.19760716 0.10962223 0.07304404 0.09767595
0000f0 67 17 7d 3e 5a 1a 47 3e ac b8 a5 bb 38 76 18 3d
       0.24715959 0.19443646 -0.005057415 0.037222117
000100 02 c8 80 3e 1b a7 3f bd c4 ee 3d be 04 c4 25 3c
       0.25152594 -0.046790224 -0.18548113 0.010117535
000110 e3 f1 98 bd 41 10 0f 3e 7a 56 d8 bd 03 87 3b bc
       -0.07468011 0.13971044 -0.10563369 -0.0114457635
000120 1d ea 38 be 46 27 fc 3d f9 9a 26 be 9d b9 ef 3d
       -0.18058057 0.12312178 -0.16270055 0.11705325
000130 ef 8e 30 be 33 3e 6b bd e0 56 ab 3d 2e ac be be
       -0.17242025 -0.057432365 0.083661795 -0.37240738
000140 86 65 ce 3d 83 87 8c be 65 f4 2a bf 47 f9 89 3b
       0.10077958 -0.27447137 -0.66779166 0.0042106244
000150 02 49 5d 3d a2 68 b0 3d c0 d7 63 bc 43 56 d9 be
       0.054024704 0.08613707 -0.013906419 -0.42448625
000160 b0 92 82 3d 31 c9 6b 3e 31 03 b2 bd 08 53 1b 3c
       0.06375635 0.23025967 -0.08692015 0.009480245
000170 d0 4f 24 3e 48 ce 2b bd 1d 1e c2 3e 4f 62 d7 bd
       0.16046071 -0.041944772 0.379136 -0.10516798
000180 88 bf ae 3d 33 93 6a 3e 3c 06 34 3d d3 16 54 bd
       0.085326254 0.22907715 0.043951258 -0.05177958
000190 38 a9 ff be 95 b3 e2 3d 3a 77 b5 bd 87 3c eb 3d
       -0.4993379 0.11069409 -0.08860631 0.11486154
0001a0 bf 61 bb 3d a3 10 03 3e fd eb fd 3d 0e 42 f5 3d
       0.09149503 0.12799315 0.12398527 0.119754896
0001b0 a6 63 3e 3e 70 3a 76 bd b6 8e f2 bc 72 9f 4a be
       0.185927 -0.060114324 -0.029609066 -0.19787386
0001c0 dd 96 31 3e c7 e6 9c bc 39 bb 82 3d da 96 fd 3d
       0.17342706 -0.019153012 0.06383366 0.12382288
0001d0 78 fd 1c be f9 a9 b1 bd 81 1d 82 be f2 d9 0d 3e
       -0.15331066 -0.08674998 -0.25413135 0.13852671
0001e0 f5 c7 05 3e be 1e 85 3c d4 7f a0 3c a5 4b 47 be
       0.13064559 0.01625001 0.019592203 -0.1946245
0001f0 73 20 63 3d f8 3d b7 3d e7 c0 17 3d 18 6f 63 be
       0.055450868 0.089473665 0.0370492 -0.22210348
000200 68 d9 16 be 19 ab 29 bc fb 8d 0c bc ce 64 84 be
       -0.14731371 -0.010355734 -0.008578773 -0.25858158
000210 5f c5 40 3d 6c 09 56 bd 82 c7 5e 3e 80 53 47 be
       0.047063228 -0.05225508 0.21755794 -0.19465446
000220 cc 30 bf 3d f3 9e cb 3c 5a f7 2f 3b d5 7d 9a be
       0.09335479 0.024856066 0.0026850314 -0.30174127
000230 f0 78 04 3f 91 35 5d be 48 96 50 3e 56 71 0e bd
       0.51747036 -0.21602465 0.20369828 -0.034776054
000240 c3 52 8d 3d 1d 3a 30 be 49 f3 2b 3e d7 91 23 bd
       0.06900551 -0.17209668 0.16792025 -0.039934006
000250 26 5d 89 3d 02 e4 7b bd 87 82 a4 3d 7e 32 75 be
       0.0670722 -0.061496742 0.080327086 -0.23945042
000260 2c 84 9f bd 9a 23 6f 3d 7d 78 88 3c bb c1 c6 bc
       -0.07788882 0.05838356 0.016659016 -0.0242623
000270 99 cf 94 be eb 07 97 bc cd 5a 1a be 38 95 84 be
       -0.29064634 -0.018436393 -0.150737 -0.25895095
000280 34 a1 cf 3d 26 65 32 3b 96 d8 72 bc d2 34 5e 3e
       0.10138169 0.0027220934 -0.014822146 0.21699837
000290 dc 2c 35 3e 63 53 b2 bc 8f d4 60 bd 39 fe 07 3e
       0.17692894 -0.021768278 -0.05489021 0.13280572
0002a0 55 63 e3 bd 3c c9 55 3d a8 1c e7 3b f1 44 3e be
       -0.111029305 0.052193865 0.0070529766 -0.18580987
0002b0 34 49 7f be 45 d9 b9 bd d2 3e 22 be 93 95 9a 3a
       -0.24930269 -0.09074644 -0.15844277 0.0011793844
0002c0 63 6f f8 3c ec d9 31 bd 4f 0a 47 3c d1 a8 b6 3c
       0.03032655 -0.043420717 0.012148454 0.022297295
0002d0 f4 7f 2a bd 42 1e d6 3d 03 48 47 bd 50 8d d3 bc
       -0.04162593 0.1045499 -0.04865266 -0.025824219
0002e0 25 93 c6 be 0c 4e f7 3d bc 02 7d bd 81 97 91 bd
       -0.38784137 0.12075433 -0.061770186 -0.07108975
0002f0 d3 d2 a7 3d c1 7e 06 ba 6c 69 b8 3d 58 1a 91 3d
       0.081945084 -0.0005130582 0.090044826 0.07085103
000300 c0 9e 14 be ab cf 8e be 67 f6 d7 3d d9 cb 2e be
       -0.14513683 -0.27892813 0.105450444 -0.17069949
000310 28 0b 3e 3d c7 55 5c 3c 84 07 fe 3d c4 3d 26 3e
       0.04639736 0.013448185 0.12403777 0.16234499
000320 4c 65 12 3e 74 8b 0c be 5a 9e 7a be 80 2d 73 bd
       0.14296454 -0.13725072 -0.24474469 -0.059369564
000330 cf 6f 80 be 48 ac c5 bd 95 f0 89 bd ad 2f 99 bd
       -0.25085303 -0.09652001 -0.067353405 -0.074797966
000340 45 95 b7 bb 60 c7 2d 3e e3 4d 22 3e e0 33 14 3e
       -0.005602511 0.16970587 0.15850024 0.14472914
000350 87 dd 70 3e 0f a0 41 be 03 e1 07 be a8 c3 4a 3e
       0.23522006 -0.18908714 -0.13269429 0.198012
000360 c5 7c 9d 3d 11 ad aa 3d 3b f2 e8 bc 69 de 6c 3d
       0.076898135 0.08333791 -0.028435817 0.057829294
000370 c5 ab 09 3f d6 1e 42 3d 8d 11 f7 bc b8 a3 68 3d
       0.53777725 0.04739269 -0.030159736 0.05679676
000380 cb 7f e0 3c a8 8a a0 bb b5 55 3e 3d a7 00 61 3e
       0.027404686 -0.0048993416 0.046468455 0.21972905
000390 a2 8b f0 3d d9 45 eb bd f0 d0 7f 3d 95 cf 43 be
       0.11745383 -0.11487932 0.062455118 -0.19122155
0003a0 36 a2 29 be c5 e4 d6 3d 55 e3 5b 3b 45 8e b9 3c
       -0.16565785 0.10492853 0.0033552248 0.022650847
0003b0 52 3c 49 be f1 d5 4b be 4e 08 fb 3d 59 90 1a 3e
       -0.19651917 -0.19905831 0.12257443 0.15094127
0003c0 c7 de 01 3b e0 39 e0 3d 99 75 bb bd b9 4a b4 3d
       0.0019816624 0.10948539 -0.09153289 0.08803315
0003d0 20 7f 20 3e 8d c0 1d 3e 39 87 dd bd 14 66 c0 3d
       0.15673494 0.15405484 -0.10816807 0.0939447
0003e0 2e 10 50 be 8d b8 0b 3e 7a ae 17 bb 9b f4 11 3d
       -0.20318672 0.1364462 -0.0023144768 0.035633665
0003f0 f6 a4 b5 bd 9d 13 b5 3d 06 d4 fe bd 3c 2e 6a be
       -0.088693544 0.088416316 -0.12442784 -0.228692

fc2.bias f4 [300]
000000 56 1b 38 3e c1 cb b9 3b 5b 42 b7 bd 39 25 29 3d
       0.17979178 0.0056700413 -0.08948203 0.041295264
000010 56 0d e5 3a d9 d6 67 bd 9e 5c 13 3d 37 6d 83 3d
       0.0017475288 -0.05660138 0.035977 0.064173155
000020 56 84 85 be 9a db 80 bb 2f a7 74 bd 47 49 24 bd
       -0.26077527 -0.0039324285 -0.05972975 -0.040108945
000030 b0 c2 f8 bd 97 a5 03 bb 96 e4 39 bc f1 36 ad bd
       -0.12146509 -0.0020087713 -0.011346003 -0.08457745
000040 a2 4c 3a be 89 d9 90 3d 74 d6 53 3c 27 76 6b 3d
       -0.18193296 0.070727415 0.012929548 0.057485726
000050 1c 95 90 3c 57 1f 0d be 64 f4 c8 bd a1 fd fa bd
       0.017649226 -0.13781486 -0.09812239 -0.12255407
000060 76 3f 81 3d 45 55 85 bc f7 81 76 3d 94 c3 f8 3d
       0.06310932 -0.016276011 0.060182538 0.121466786
000070 63 b0 e3 bd f7 dd 84 3d cb 86 d6 bd a9 b5 2b bd
       -0.111176275 0.06487649 -0.104749285 -0.04192129
000080 dd 58 80 3d be dc 17 be 3d a5 e3 bd dd d3 a6 bd
       0.06266949 -0.148303 -0.11115501 -0.081458785
000090 55 14 12 be 5b 50 ef 3c 9b 97 13 be f8 54 c7 bd
       -0.14265569 0.029213121 -0.14413302 -0.097330034
0000a0 67 9d 8d bd 5d 17 90 3d 17 f4 fb 3c 36 10 a8 3d
       -0.06914788 0.07035706 0.03075604 0.08206217
0000b0 48 20 39 be fd 1e ad bd a8 2d 0f be b9 0a 2a 3d
       -0.1807872 -0.08453176 -0.1398226 0.041514132
0000c0 d3 cc 15 be 2d f3 82 3a 74 92 16 bc 90 67 72 be
       -0.14628915 0.0009990685 -0.009190191 -0.23672318
0000d0 d3 ee 9f 3d 39 f9 58 3d d9 cd b5 bd eb f8 91 3d
       0.07809224 0.052972052 -0.08877153 0.071275555
0000e0 24 05 02 be bd d3 1a 3d 31 38 37 bd 02 34 5b be
       -0.12697273 0.037799586 -0.044731323 -0.21406558
0000f0 5a 91 85 3e 2c 01 58 bd 74 0a 89 bd 68 46 b6 bd
       0.26087457 -0.052735493 -0.06691447 -0.08900148
000100 37 bf c9 bd 7d 92 52 be cd 7f 1c bd bc ba 30 be
       -0.098509245 -0.20563693 -0.038207818 -0.17258734
000110 f5 76 c9 3c 07 9e 0d be e6 7d ce 3c 31 66 29 3e
       0.024592856 -0.13829814 0.025206517 0.16542889
000120 a0 f0 16 bd e7 ee 3a 3d 49 8c 76 bc 89 aa 97 bd
       -0.03685057 0.04563799 -0.015048095 -0.07405574
000130 0e dc 18 bd 7e 19 81 bd 2a 25 20 3d 70 bf 20 bd
       -0.037319236 -0.063036904 0.039097942 -0.03924507
000140 88 8e 68 bd 0a 81 1b be 42 c8 31 3d 50 58 62 bd
       -0.056776553 -0.15185943 0.04340387 -0.055260003
000150 9b d6 2c 3d cd c4 31 3d e4 e8 b2 3d 57 97 11 3d
       0.04219685 0.043400574 0.087358266 0.03554472
000160 93 49 08 bb fd 58 2c be b6 e6 01 be 31 b6 83 3d
       -0.0020795807 -0.16830821 -0.12685665 0.06431235
000170 22 6e 5d 3b b7 9b ae 3d 8f 9d 4b bc 64 70 d2 3c
       0.0033787568 0.08525794 -0.012427702 0.025688358
000180 d8 9e e3 bd 49 9a 3e bd 6b fc 16 be 5d c6 15 3e
       -0.111142814 -0.046533857 -0.14744727 0.14626451
000190 4f c4 6a bd ae 16 1f be 49 d8 2b be 03 f9 f0 bc
       -0.05731612 -0.15535995 -0.16781725 -0.029415613
0001a0 44 66 31 bb 76 71 47 be b1 aa de bb bd 98 5f be
       -0.0027069012 -0.19476876 -0.0067952503 -0.21835609
0001b0 ce 02 44 be 86 41 59 3e b2 3f d4 bd e0 09 3c 3d
       -0.19141695 0.21216401 -0.103637114 0.045907855
0001c0 7a 72 49 be 19 89 bd 3d 60 ba e0 bd 6c cb d0 bd
       -0.19672576 0.09254665 -0.10973048 -0.1019505
0001d0 5a 95 e5 3c 1b 1c 38 be 14 80 d8 3b 1e d5 1c 3d
       0.028025318 -0.17979471 0.006607065 0.038289182
0001e0 94 26 1e be 18 d5 f8 bc 0f d0 65 bc d5 c0 b8 bd
       -0.15444404 -0.030375049 -0.014026656 -0.09021155
0001f0 e1 6a 09 be ed 94 01 be 09 30 ac bc d9 18 2b be
       -0.13419677 -0.12654467 -0.021018999 -0.16708697
000200 17 b3 27 be de 12 5f 3c 22 aa 98 3d 7e bb 3d be
       -0.16376911 0.013615338 0.07454325 -0.18528554
000210 e3 17 d6 bb 14 ac e3 bd 74 72 33 be 65 c3 16 bd
       -0.0065336092 -0.11116806 -0.17524129 -0.036807436
000220 5d 87 e0 bd f2 55 17 3d 1c ec 28 be 4c 64 6c 3d
       -0.109633185 0.0369472 -0.16496319 0.057712838
000230 d7 09 0b bd 15 3b 65 be 99 ba 25 be e0 bb 82 be
       -0.03394493 -0.2238582 -0.16184463 -0.25533962
000240 c2 6f 14 be 0f 18 34 be 23 12 0f bd 14 e8 95 bc
       -0.14495757 -0.17587303 -0.034929406 -0.01829914
000250 87 0f 3c bd d2 60 1e 3c 1c 6d 52 3d f5 4b c8 bb
       -0.045913246 0.009666638 0.051373586 -0.0061125704
000260 79 97 81 3d 2c bc 1f 3d 1e ba 02 be 3a 64 7d 3b
       0.06327719 0.038997814 -0.1276631 0.0038664476
000270 33 86 1a be e6 c2 a9 bd 2a d5 ca bd 5c b1 1a bb
       -0.15090255 -0.08289127 -0.09903939 -0.002360425
000280 9f 9b b4 3d 62 75 22 3e 95 97 1f 3c 76 61 d5 3d
       0.08818745 0.1586509 0.00974073 0.1041898
000290 c2 6e d7 bc a1 b1 16 be d2 45 05 be 68 29 db bd
       -0.02629793 -0.14716198 -0.13014916 -0.10701257
0002a0 8c 40 52 be 6a 05 c3 bd e8 6b e0 bd 41 00 3c 3c
       -0.20532435 -0.09522517 -0.109580815 0.01147467
0002b0 55 a9 a2 bd a9 ab c5 3d 52 e6 1b bc 00 8e b5 bd
       -0.07942454 0.09651882 -0.009515362 -0.08864975
0002c0 36 c5 22 3d 7b f1 39 3d 18 db e5 bc 65 3f 6f be
       0.039738856 0.04539631 -0.028058574 -0.23364027
0002d0 09 3a 65 3c d0 fb 5f be d1 eb 08 3e 49 f1 09 be
       0.013990887 -0.21873403 0.13371207 -0.13470949
0002e0 73 18 0f bd 8a 62 80 3d 2a 1c be 3d 89 d0 83 bd
       -0.034935426 0.06268795 0.092827156 -0.06436259
0002f0 07 58 96 bd e4 16 c0 bd ec 7d 33 3e ea 40 92 bd
       -0.07341009 -0.09379366 0.17528504 -0.071412876
000300 01 15 64 bd ae d0 76 bd cd f0 01 be 8b 04 ef 3d
       -0.055684093 -0.060257606 -0.12689514 0.116707884
000310 14 29 83 bd 57 be 3f be 96 0f 49 3c 35 b1 67 bd
       -0.064043194 -0.18724953 0.012271782 -0.056565482
000320 60 0e cd bd 4a 5f 5a 3d 4a 7a 37 3d a5 26 3b be
       -0.100125074 0.05331353 0.04479436 -0.1827646
000330 78 25 19 be 97 b1 8e bd db bd 53 bd a1 3b b9 3c
       -0.149557 -0.06967466 -0.051694732 0.022611441
000340 d0 db a2 3c d6 7e 04 be 10 d8 04 be 07 03 91 be
       0.019880205 -0.12939009 -0.12973046 -0.28322622
000350 32 9e 85 bd ac 09 20 be 5b bc d4 bc 19 f2 5c 3d
       -0.06524314 -0.1562869 -0.025968721 0.05394182
000360 6f d3 f7 bc c9 6a b0 bd 15 6a 85 be 00 33 b0 bc
       -0.030252187 -0.08614118 -0.26057497 -0.021508694
000370 77 ae 67 be 1c 9a 34 3d 7c fc 83 3d 44 a6 e5 bd
       -0.22625147 0.044092283 0.06444642 -0.11213353
000380 4c 16 99 bd cc 0e 8b 3d 22 52 35 be 08 da 73 3d
       -0.07474956 0.06789932 -0.17707112 0.059534103
000390 ce f5 65 bd 17 aa 8b 3d ed 1b 0b 3e c0 5a 43 3d
       -0.05614262 0.068195514 0.13584872 0.047693968
0003a0 d8 24 21 bd d4 a4 a8 3d 91 0a 94 3c d8 3c 06 be
       -0.039341778 0.082345635 0.018071445 -0.13109148
0003b0 3b 93 01 bd 34 61 fb bd 0b e6 0f be ee 6d ef bd
       -0.03163455 -0.122743994 -0.14052598 -0.11690889
0003c0 33 f4 dc bd 98 07 7d bd d6 50 89 bd 1d 0c 7f be
       -0.10788765 -0.06177482 -0.06704871 -0.24906965
0003d0 9d 01 c9 3c 69 bc 10 be f1 aa cd bc b2 d2 6c 3b
       0.024536902 -0.14134373 -0.025105925 0.0036136326
0003e0 bb 4c 2a 3d 34 2e d0 bd 17 22 99 bd f1 3b 30 be
       0.041577082 -0.101650625 -0.07477205 -0.17210366
0003f0 9f a7 19 bd 8d bd db 3d 3d e1 fd 3c 67 b1 16 be
       -0.03751337 0.10729513 0.030991191 -0.14716111

fc3.weight f4 [1, 300]
000000 04 4d 6f 3e 1c b3 f1 3e 3f d9 39 be e1 eb 8d 3e
       0.23369223 0.47206962 -0.18149279 0.27719024
000010 9a fa cf 3e 0f 9e bb 3e 46 47 bb 3d a3 30 52 3e
       0.4062088 0.36644027 0.09144454 0.20526366
000020 8b 3e 26 be 80 b4 85 3e 4b 58 af bd 52 81 f4 3e
       -0.16234796 0.26114273 -0.085617624 0.47754914
000030 34 67 9e 3e ad 2c de 3e 08 8b 5d 3e f7 14 4b bd
       0.30938113 0.4339346 0.21635067 -0.04958054
000040 47 f8 9b be a1 1c cf 3e 19 3d 96 3d 83 a9 6e 3e
       -0.30462858 0.4045153 0.07335872 0.23306851
000050 f8 2b 11 3f d2 b8 a2 be dd ad ba 3e fb d0 7f be
       0.56707716 -0.31781632 0.36460772 -0.24982063
000060 e0 20 58 3e de 32 91 3e 65 73 a6 3e 5e 42 25 3e
       0.21106291 0.2835912 0.32509914 0.16138598
000070 da 95 3b be 82 bc 9d 3e 92 f3 09 be 7d fc a6 bd
       -0.18318883 0.30807883 -0.13471821 -0.08153627
000080 a9 53 69 3e 17 2b 3c 3d d7 2e 5c be c2 ea 44 3d
       0.2278582 0.04593953 -0.21502243 0.048075445
000090 d1 c9 68 be c2 8e 98 3e 27 70 c5 bd 98 8e b0 be
       -0.22733237 0.29796416 -0.09640532 -0.3448379
0000a0 8a d5 90 bd 59 56 bb 3e a6 90 37 3d c6 5d ac 3c
       -0.07071979 0.36589316 0.044815682 0.021040808
0000b0 a4 c3 6e be 29 40 52 be 1c bc a2 3d 4d 46 75 3e
       -0.23316818 -0.20532288 0.07946035 0.23952599
0000c0 d4 8a 33 be 89 f0 c1 3e 73 6c 1c 3d f6 a6 6a be
       -0.17533427 0.37878826 0.038189363 -0.22915253
0000d0 59 8f 87 3e 38 03 d3 3d 32 16 9b be 21 16 81 3e
       0.26476553 0.10303348 -0.3029037 0.25212196
0000e0 69 d5 23 be 2c 87 06 3e 2b 73 8c 3e 55 26 88 be
       -0.15999378 0.13137501 0.27431616 -0.26591745
0000f0 ad 95 80 3e 2a eb bf 3e fe bf 75 be 20 8d a1 3e
       0.25114194 0.37484103 -0.2399902 0.31552982
000100 db 2e f5 be 28 dd a4 be 5a 3b 0f 3e ed 45 35 be
       -0.4788731 -0.3219998 0.13987485 -0.17702456
000110 ec 8c 0c be 3d 15 08 be ad f2 26 3d 98 05 9a 3e
       -0.13725632 -0.13289352 0.040758777 0.30082393
000120 93 44 6c 3e 1b d7 f5 3e fd 22 b6 bb 47 bd 72 bc
       0.23073034 0.48015675 -0.00555837 -0.014815635
000130 a1 d9 23 be be 87 7a 3c 1e 97 67 3e c2 d8 ce 3e
       -0.16000988 0.0152911525 0.2261624 0.40399748
000140 8f a8 9a 3c b1 8f 65 be 08 3c b9 3e e4 fb 61 bd
       0.018879203 -0.22418095 0.36178613 -0.055171862
000150 73 69 dd 3e ac cd 0b 3f 68 7e 35 3e 85 02 d6 3e
       0.43244514 0.54610705 0.17724001 0.41798797
000160 aa 71 b0 3d d7 0c 6b be c8 89 13 be a1 e1 af 3e
       0.0861543 -0.22954117 -0.14408028 0.3435183
000170 f8 81 2a bd ec 5d 01 3e a5 e3 13 3e 59 bc bb 3e
       -0.041627854 0.12633485 0.14442308 0.36667135
000180 f8 4f d2 3e bb fa c3 3d a6 77 0a be 90 bc ac 3e
       0.41076636 0.095693074 -0.13522205 0.33737612
000190 bf fe e6 bc b3 e5 dc bd af 96 46 be 20 b8 c9 3e
       -0.028197644 -0.10785999 -0.19393419 0.3939829
0001a0 5f 07 3a bc 30 33 94 be 3b 0e a4 3d 5a be b9 be
       -0.0113542965 -0.28945303 0.08010527 -0.3627804
0001b0 df c1 a3 be 20 d7 91 3e c7 8c 1c be 5b 41 9f 3e
       -0.3198385 0.2848444 -0.15288077 0.3110455
0001c0 ef e1 27 be 99 b9 7b 3e c5 e0 a4 3c d6 82 6d be
       -0.1639478 0.24582519 0.02012671 -0.23194441
0001d0 70 d1 e7 3e 28 f0 4d be 29 a2 e8 3e 4b 2a 9a 3e
       0.45276976 -0.20111144 0.45436218 0.30110392
0001e0 76 85 a9 bd cb ef cd 3e e2 38 46 bd 22 35 be 3e
       -0.08277409 0.4022201 -0.04839409 0.37149912
0001f0 18 be f8 be 1b af af be 2a 6d da 3e f5 80 6e be
       -0.4858253 -0.34313282 0.4266141 -0.2329138
000200 b8 e0 9c 3d b9 36 93 3e e2 e1 a3 3e 59 c6 12 be
       0.07660049 0.28752688 0.32008272 -0.14333476
000210 02 ff bb 3e ef 32 59 be a2 f1 17 be 49 3c c8 bd
       0.36717993 -0.21210836 -0.1483827 -0.097771235
000220 b8 eb 78 3d 81 3b dc 3e 9d 0c a9 be 67 d4 a8 3e
       0.060771674 0.43014148 -0.33017436 0.3297455
000230 52 e5 ea 3e 7c 44 1f be a6 88 89 be 97 53 0a be
       0.45878083 -0.15553468 -0.26862067 -0.1350845
000240 4e f9 4e be 92 5e 29 be 77 0d 17 3c 0c 0a 0f 3e
       -0.2021229 -0.16539982 0.009219519 0.13968676
000250 41 1f 5c 3d f5 f1 d7 3e 4d 72 52 3e 3d 16 ff 3e
       0.053740744 0.42176786 0.20551415 0.49821654
000260 36 42 64 3e 06 f0 1d 3f 3e 71 2a bd 5c 52 88 bd
       0.22290882 0.6169437 -0.041611902 -0.06656334
000270 df 3d 83 3e d1 10 18 3e 5a de 54 be c9 49 d0 3d
       0.2563314 0.14850165 -0.20787945 0.101703234
000280 37 b5 53 3e 1a cf b6 3e 38 6c 01 bc af a8 d8 3c
       0.20674597 0.3570488 -0.0078993365 0.026447622
000290 60 07 f2 3e f1 09 a7 3e a2 dc ab 3e 26 e2 0b be
       0.47271252 0.32624772 0.33566767 -0.13660488
0002a0 d6 34 b4 bd bb b5 dc 3e 46 9d 57 bc b7 6a 32 3e
       -0.0879914 0.431074 -0.0131600555 0.17423521
0002b0 fe 48 48 3d 38 3d 8a 3e 72 f6 d1 3e 0f ad 42 bd
       0.048897736 0.2699983 0.41008335 -0.047528323
0002c0 49 89 bc 3d 0d 53 96 3e 23 7c b8 3d f4 49 a5 be
       0.092058726 0.29360238 0.09008052 -0.32282984
0002d0 af b5 c0 3d 1b 20 c6 3e 52 24 9f 3e 80 b5 c5 3e
       0.094096534 0.3869637 0.31082398 0.38615036
0002e0 2c 16 09 3f 76 f9 ec 3e e9 95 02 3e c4 2e 0c be
       0.53549457 0.46284074 0.12752499 -0.13689715
0002f0 68 89 51 be ac 6e 79 3e df 99 91 3e b4 f3 81 be
       -0.20462573 0.24358624 0.28437707 -0.25381243
000300 56 2d a5 3d 82 75 31 be 28 20 1e be 8b fb 03 3f
       0.08065288 -0.17329982 -0.15441954 0.515557
000310 16 1d 64 3e e7 c2 f2 be cb 52 0e 3f 3a 86 7d be
       0.2227672 -0.47414324 0.5559508 -0.24758235
000320 d0 dd 4e 3d ef ef a7 3e 0e 13 10 3e 8a 7b ab be
       0.050504506 0.32800242 0.14069769 -0.3349269
000330 4e 4d 0c be 02 e8 d6 3e 91 10 72 be 7f 8d 2c 3d
       -0.13701364 0.41973883 -0.23639132 0.04212713
000340 17 65 06 3f b5 e4 19 be c9 b9 98 be 56 8b d8 3c
       0.52498 -0.15028651 -0.29829243 0.026433628
000350 88 03 d2 3e 34 fe 81 bd 05 2c ac ba 81 b8 09 3e
       0.4101832 -0.063473135 -0.0013135677 0.13449289
000360 67 c6 03 3f 1e c6 7a be b5 82 eb bd 67 72 ca bd
       0.5147461 -0.24489638 -0.1149954 -0.09885102
000370 1d 36 70 be fd 9d 0f 3f 03 a6 4d 3e 5e 17 45 be
       -0.23458143 0.56100446 0.2008286 -0.19247195
000380 58 7d cc 3e 77 a6 06 3e f3 7f 3e be 17 a6 0a 3f
       0.3993938 0.13149439 -0.18603496 0.54159683
000390 3b fc 96 3e 9b e2 0f 3f 78 6a 3d 3e 07 a6 91 3e
       0.29489312 0.5620515 0.18497646 0.2844698
0003a0 9f 4c 4e be 0a 47 7e 3e ea e2 fa 3e df ab 37 bd
       -0.20146416 0.24831787 0.49001247 -0.044841643
0003b0 38 2d b5 3e 39 67 a2 3d 60 08 03 3c 68 05 53 be
       0.35386062 0.079298444 0.007997602 -0.20607531
0003c0 d3 5e 7c be 2d 1b 11 3f df cb 87 3e 8b 69 77 be
       -0.24645548 0.5668209 0.2652273 -0.24161355
0003d0 a5 49 b4 3e 7b ff 60 bd 5b 9d fe 3e 61 e1 df 3d
       0.35212436 -0.054931145 0.49729428 0.109316595
0003e0 7b 63 bf 3e 7a f8 cd 3e 8b f0 47 3d 17 ad 28 be
       0.37380585 0.40228635 0.048813384 -0.16472279
0003f0 ca 62 6a 3e 77 a7 ce 3e ce aa 1f 3e 0b 97 45 be
       0.22889248 0.4036214 0.155925 -0.192959
