checkpoints/critic.pkl (torch, 493791 bytes, 5 tensors)

fc1.weight f4 [400, 4]
0	0x3f83f92c	1.0310416
1	0x3ef7e6d6	0.484183
2	0xbf7b7be6	-0.9823593
3	0x3cc72a31	0.02431211
4	0x3ce89edf	0.028396068
5	0xbe229acc	-0.15879363
6	0xbd64b915	-0.05584057
7	0x3ec7938e	0.38979763
8	0x3fe1ae54	1.7631326
9	0x3f138fc4	0.57641244
10	0xbe3361d7	-0.17517792
11	0x3fa4280b	1.282472
12	0xbe578657	-0.2104734
13	0x3e76260b	0.2403795
14	0xbfd9fe64	-1.7030759
15	0xbee94082	-0.45557028
16	0x3d6f4dc5	0.058423776
17	0x3d8ac0a4	0.067750245
18	0xbf7c9bb3	-0.9867508
19	0x3cd6612b	0.02616938
20	0xc014f6e4	-2.327569
21	0xbf33045a	-0.69928515
22	0xbed457da	-0.41473275
23	0xbee80083	-0.4531289
24	0x3f93cde8	1.1547213
25	0x3dcea655	0.10090319
26	0xbf470634	-0.7774384
27	0x3e82fb7c	0.25582492
28	0x3c482418	0.012215637
29	0x3ba6a3d4	0.005085448
30	0xbbe6e9a8	-0.007046897
31	0x39a12214	0.00030733703
32	0x3e12862f	0.14309
33	0x3f0a7eff	0.5410003
34	0x3fa0735e	1.2535207
35	0xbd0e1512	-0.034688063
36	0x3fced7dc	1.6159625
37	0x3f91f391	1.1402456
38	0xbe2163c3	-0.15760712
39	0xbd08c3a9	-0.03338972
40	0xbec3e724	-0.38262284
41	0xbf1202d7	-0.57035583
42	0x3fb48009	1.4101573
43	0x3db545ac	0.088511795
44	0x3ea403f4	0.32034266
45	0x3e2aefd8	0.16693056
46	0x3fb5a68c	1.4191451
47	0xbdeed72e	-0.11662136
48	0xbf80277a	-1.0012047
49	0xbd098216	-0.033571325
50	0x3b29aa12	0.0025888723
51	0x3bbc75e4	0.0057513583
52	0xbeea317e	-0.45740885
53	0xbeb7ccb7	-0.35898373
54	0x3f0df489	0.55451256
55	0xbef2b4ee	-0.47403663
56	0xbf2d82a6	-0.6777748
57	0xbebeb7f4	-0.3724972
58	0x3f6119b5	0.8792985
59	0x3e409106	0.18805322
60	0x3cc08c7a	0.023504484
61	0xbfa546f5	-1.2912279
62	0xbffa7fe2	-1.9570277
63	0xbee72cb0	-0.4515128
64	0x3f9461dc	1.1592364
65	0xbd7555e5	-0.05989637
66	0xbfc4e9de	-1.5383871
67	0xbcafa8b0	-0.021442741
68	0x3ee59104	0.448372
69	0x3e8221ae	0.2541632
70	0xbf50a2d6	-0.8149847
71	0xbdcc7874	-0.09983912
72	0xbeae395e	-0.34028143
73	0x3f09d1e3	0.53835887
74	0xbf308c26	-0.6896385
75	0xbdd8c96e	-0.10585295
76	0x3ec789ad	0.38972226
77	0x3e2a64bb	0.16639988
78	0xbf2c1f5a	-0.6723534
79	0x3c1c9076	0.009555927
80	0x3e0965f7	0.13417803
81	0x3e22f07e	0.15912053
82	0x3f2d2c53	0.6764576
83	0x3e0cebd2	0.13761833
84	0xbf87ecc9	-1.0619136
85	0x3e15d8c4	0.14633471
86	0xbe727942	-0.23679069
87	0xbf513f42	-0.8173715
88	0xbf84fc8b	-1.038957
89	0xbf760dca	-0.9611479
90	0x3f56a565	0.8384612
91	0xbf329105	-0.6975253
92	0x3e9f4874	0.31109965
93	0x3f3a818e	0.72853935
94	0x3f2dbeab	0.6786906
95	0xbcb3ef96	-0.02196483
96	0xbf8a20e0	-1.0791283
97	0xbfd7c471	-1.6856824
98	0x3ea27eca	0.31737357
99	0x3ea79166	0.32728118
100	0x3f365eb1	0.7123824
101	0x3ed27ae2	0.41109377
102	0xbfc1dd89	-1.5145732
103	0xbe23e60e	-0.16005728
104	0x3f067c86	0.5253376
105	0x3e3c00ee	0.1835973
106	0x3ea7436c	0.32668626
107	0x3dc4674c	0.09590015
108	0x3f04329a	0.5163971
109	0xbe45fd04	-0.19334799
110	0x3d97fd3f	0.0742135
111	0x3e7d2ee7	0.24724923
112	0x3f38880e	0.720826
113	0x3eee20e8	0.4650948
114	0x3fe01878	1.7507467
115	0x3f6f1955	0.9339803
116	0x3d1f6d61	0.03892267
117	0x3bb788bc	0.005601017
118	0xbd22f19d	-0.0397812
119	0x3a91ee46	0.0011133633
120	0x3f5ee8d9	0.8707405
121	0x3ec9e4b7	0.39432308
122	0xbeeba69a	-0.46025544
123	0x3e51e4ed	0.20497485
124	0x3f433ddc	0.76266265
125	0x3f09c329	0.53813416
126	0xbf69a66d	-0.9126957
127	0xbf6b9015	-0.92016727
128	0x3ee3cf5b	0.44494137
129	0x3f8d62d4	1.1045785
130	0xbea0e942	-0.31427962
131	0x3e896d3f	0.2684116
132	0xbcefcc6a	-0.029272277
133	0xbd063ea7	-0.032774594
134	0xbf54f0b8	-0.8317981
135	0xbda794e7	-0.08182698
136	0x3da80686	0.08204369
137	0xbeb5f324	-0.35537064
138	0xbfbe6e0a	-1.4877331
139	0xbdd2826f	-0.102787845
140	0x3d377692	0.04479081
141	0xbe5d713a	-0.21625224
142	0xbf2dbdb3	-0.67867583
143	0x3f09e9c8	0.53872347
144	0xbef10f20	-0.47081852
145	0xbf3636e0	-0.7117748
146	0xbfc778ba	-1.5583718
147	0xbec8b221	-0.39198402
148	0x3f6bdb01	0.9213105
149	0x3f26fe91	0.6523219
150	0x3ef5cd23	0.4800807
151	0x3e7003a6	0.23438892
152	0xbf17239b	-0.59038705
153	0xbe2921ee	-0.1651685
154	0x40088cfe	2.1336055
155	0x3f3a5f80	0.7280197
156	0x3ca0ceef	0.019629924
157	0xbeb9fbd1	-0.36324933
158	0x3f4ff1cd	0.81228334
159	0x3e308c42	0.17241004
160	0xbe3791c7	-0.17926703
161	0x3cc4b3c8	0.024011508
162	0xbd51a1aa	-0.051179565
163	0x3b3ffac9	0.0029293767
164	0x3effede0	0.49986172
165	0x3e436bd7	0.19084106
166	0xbf36a6ae	-0.71348083
167	0xbde78036	-0.11303751
168	0x4052687d	3.2876275
169	0x3e1d769f	0.15377282
170	0x3f47205d	0.7778376
171	0xbe4de8b8	-0.20108306
172	0xbefd8af8	-0.49520087
173	0x3ee96c56	0.45590466
174	0x3f10bb4f	0.5653581
175	0x3d9a363d	0.075298764
176	0xbd5e2eaf	-0.05424374
177	0x3dc78c98	0.09743613
178	0xbf5f78c5	-0.87293655
179	0x3c7aded5	0.015311916
180	0x3fa7236b	1.3057684
181	0xbde474af	-0.11155068
182	0xbfa06446	-1.2530601
183	0x3efa2ab6	0.4886071
184	0xbf08f63c	-0.53500724
185	0xbe75c0cf	-0.23999332
186	0x3f4d0ad3	0.8009464
187	0x3ef4574c	0.47722852
188	0x3ec86f4c	0.39147413
189	0x3d28e922	0.041237958
190	0x3c677600	0.0141272545
191	0x3d42541f	0.047443505
192	0x3f0a0493	0.5391323
193	0x3f1fae21	0.62375075
194	0xbfbf7238	-1.4956732
195	0x3e076662	0.1322265
196	0x3e87c7ee	0.26519722
197	0xbd7e65a5	-0.062108655
198	0xbf3cfdba	-0.73824656
199	0x3e53273a	0.20620432
200	0xbf98add8	-1.1928053
201	0x3df24e2c	0.11831316
202	0xbf0a96aa	-0.54136145
203	0xbe387361	-0.18012764
204	0xbef17df6	-0.47166413
205	0xbead6392	-0.3386503
206	0x3f9a3810	1.2048359
207	0x3ef4b578	0.477947
208	0xbec6ab8a	-0.3880275
209	0x3e846fd8	0.2586658
210	0x3f3508b2	0.70716393
211	0xbe3dea89	-0.185465
212	0xbebd929c	-0.37025917
213	0xbe114a3a	-0.14188471
214	0x3fea7935	1.831824
215	0x3ee13117	0.43982765
216	0xc0021a5e	-2.0328593
217	0xbfaa4bfd	-1.330444
218	0xbfb6fcec	-1.4295936
219	0xbdde7ed9	-0.10864038
220	0x3e9db25e	0.30800146
221	0x3eb5f066	0.35534972
222	0xc01b55d4	-2.4271135
223	0xbf6e60df	-0.93116564
224	0x3e84a7c3	0.25909242
225	0xbf47800a	-0.7792975
226	0xbf90fa65	-1.1326414
227	0xbeb85d94	-0.36008894
228	0xbe05c0d0	-0.13061833
229	0x3ee400ca	0.44531852
230	0x3ef3508f	0.475224
231	0x3cfe47eb	0.031040153
232	0xbf90277d	-1.1262051
233	0xbfa48aee	-1.2854898
234	0xbed2b6de	-0.41155142
235	0xbe800ff7	-0.2501218
236	0x3f458c88	0.7716756
237	0x3fb6a9dc	1.4270587
238	0xc0566910	-3.3501625
239	0xbf849d02	-1.0360415
240	0x3f9b0531	1.2110959
241	0xbe7608c2	-0.24026778
242	0xbfa61f93	-1.2978386
243	0x3ea46fba	0.3211649
244	0x3fc7fa81	1.5623323
245	0x400a2a06	2.158815
246	0xbf15907b	-0.58423585
247	0xbea079d4	-0.31342947
248	0xbfdf7dc4	-1.7460256
249	0xbfb80e93	-1.4379448
250	0x4001e78f	2.0297582
251	0x3f123b69	0.571219
252	0x402a7706	2.6635146
253	0x3e420dfc	0.18950647
254	0x3e642e51	0.22283293
255	0xbd4a116a	-0.049333014

fc1.bias f4 [400]
0	0xbfc951e7	-1.572812
1	0xbf3914ab	-0.7229716
2	0xbf4be197	-0.796411
3	0xbe31fcbf	-0.17381571
4	0xbf309c7f	-0.68988794
5	0xbf014bc0	-0.5050621
6	0xbfbb8914	-1.4651208
7	0xbe09e3a7	-0.13465749
8	0xbde356f9	-0.11100573
9	0xbf2d4503	-0.6768343
10	0xbe9b439b	-0.30325016
11	0x3dc285f0	0.09498203
12	0xbd9ce096	-0.07660024
13	0xbfd5219c	-1.6650882
14	0xbe9dd524	-0.30826676
15	0xbfebba29	-1.8416187
16	0xbfb3347b	-1.4000391
17	0x3f11cf2b	0.5695674
18	0x3d8da303	0.06915858
19	0xbf53dc43	-0.8275797
20	0x3d5932dc	0.05302702
21	0xbfbdcbf0	-1.4827862
22	0xbf3255ac	-0.69661975
23	0xbf02a3a9	-0.51030976
24	0xba91c154	-0.0011120238
25	0x3de2313f	0.11044549
26	0xbe76d4fb	-0.24104683
27	0xbf5cf816	-0.8631605
28	0x3ed59089	0.41711834
29	0xbe896fd5	-0.26843134
30	0xbf2d73c5	-0.67754775
31	0xbec74a56	-0.389239
32	0x3f0d6ad8	0.55241156
33	0xbe29100a	-0.16510025
34	0xbe907939	-0.28217486
35	0xbda06c8c	-0.07833204
36	0xbef5d5e3	-0.48014745
37	0xbe51a15d	-0.20471711
38	0xbea59898	-0.32342982
39	0xbf7793e4	-0.9671004
40	0xbf0b66aa	-0.5445353
41	0x3eba3b63	0.36373433
42	0x3deacf16	0.1146528
43	0xbed1df4a	-0.4099067
44	0x3e891cf7	0.2677991
45	0xc0180d3d	-2.375808
46	0xbe8da1da	-0.27662545
47	0xbf36465c	-0.7120111
48	0xbf6e1143	-0.9299509
49	0xbe7c211b	-0.24622004
50	0xbdfb00cc	-0.12256011
51	0xbebaf165	-0.36512294
52	0xbf670611	-0.9024363
53	0x3ec7273b	0.38897118
54	0x3f339ded	0.7016285
55	0x3fe392d5	1.7779185
56	0x3d3c7dce	0.046018414
57	0xbe7510a4	-0.23932129
58	0xbe818cbd	-0.25302687
59	0x3f95db5d	1.1707569
60	0xbfc2fe43	-1.5233845
61	0xbe82a0dd	-0.25513354
62	0x3f782da0	0.9694462
63	0x3e7873d2	0.24262932
64	0x3e8428fe	0.25812525
65	0xbe030752	-0.12795761
66	0x3f8623b1	1.0479642
67	0xbf52ec38	-0.8239169
68	0xbddcf49d	-0.10788844
69	0x3eca7d1c	0.39548576
70	0xbdfa9081	-0.12234593
71	0x3f99eb49	1.2024928
72	0xbf6072fe	-0.87675464
73	0x3f5a926f	0.8537969
74	0xbf059592	-0.5218135
75	0xbfcb914e	-1.5903718
76	0xbf69a8f3	-0.9127342
77	0xbd4ad143	-0.049515974
78	0xbf2a3c2e	-0.66498077
79	0xbeee8ff2	-0.46594197
80	0xbf52a06c	-0.82276034
81	0xbf5568f2	-0.8336326
82	0x3e3b080b	0.18264787
83	0x3f575831	0.84118944
84	0xbfca1035	-1.5786196
85	0x3ef88c3d	0.48544493
86	0xbdd61c21	-0.10454584
87	0x3e1bcbb4	0.15214425
88	0x3f07b0d6	0.53004205
89	0xbec33849	-0.3812888
90	0xbd8a2a59	-0.067463584
91	0x3ec86271	0.39137605
92	0xbf212271	-0.6294318
93	0x400d77ed	2.2104447
94	0x3d9211c7	0.07132297
95	0x3e86a355	0.26296487
96	0xbe105270	-0.14093947
97	0xbf85f80c	-1.0466323
98	0x3fbd0deb	1.4769872
99	0xbeb4ca8f	-0.3531079
100	0xbdfd9fb6	-0.12383978
101	0xbeaba2fd	-0.33522788
102	0x3eeab439	0.45840624
103	0xbf041755	-0.515981
104	0xbddceab0	-0.107869506
105	0x3f1bf18c	0.60915446
106	0xbf5f7303	-0.8728487
107	0xbff7bc28	-1.9354296
108	0xbf13930a	-0.5764624
109	0xbf63eab7	-0.8903002
110	0xbf3d45f0	-0.7393484
111	0x3de4f24f	0.11179029
112	0xbf162151	-0.58644587
113	0x3d6a1047	0.05714443
114	0xbdc8f87f	-0.09813022
115	0x3ec515e0	0.38493252
116	0xbd0831a6	-0.033250473
117	0xbebaa806	-0.36456317
118	0xbf56a118	-0.8383956
119	0xbe288c77	-0.16459833
120	0xbd924cb1	-0.07143534
121	0xbf52b28a	-0.8230368
122	0xbf34c9f4	-0.70620656
123	0x3f90db37	1.1316899
124	0xbec8106d	-0.39075032
125	0xbe16fac8	-0.14744103
126	0xbf30e7af	-0.6910352
127	0xbe819491	-0.2530866
128	0xbeb24399	-0.34817198
129	0x3e8cdedc	0.27513778
130	0x3c428e18	0.011874698
131	0xbee1e4f3	-0.44119987
132	0x3f2b9042	0.67016995
133	0xbf8faf01	-1.1225282
134	0x3e7b722b	0.2455527
135	0xbfbaaa14	-1.4583154
136	0xbf54d8fc	-0.8314359
137	0xbf1c48a5	-0.61048347
138	0xbf08b04a	-0.53393996
139	0x3f2127b5	0.62951213
140	0xbf5f363b	-0.87192124
141	0xbf148819	-0.5802017
142	0xbe6ffec4	-0.23437029
143	0xbed8c016	-0.4233405
144	0xbf98d20c	-1.1939101
145	0xbedb1a7f	-0.42793652
146	0xbda7f8e1	-0.08201767
147	0xbf1448bb	-0.5792348
148	0xbf5f39ad	-0.8719738
149	0x3f9970ac	1.198751
150	0xbc8c8b8d	-0.017156387
151	0x3defdc2e	0.11711918
152	0xbf0dcc14	-0.55389524
153	0x3e6908f9	0.22757329
154	0xbf07216f	-0.5278539
155	0x3efc3aa0	0.49263477
156	0xbf138dbd	-0.5763815
157	0xbe0a103a	-0.13482752
158	0x3efc66de	0.4929723
159	0x3a81ab4c	0.0009892969
160	0xbf485248	-0.7825055
161	0xbf3b99f6	-0.732818
162	0xbf068bda	-0.52557147
163	0xbea103a6	-0.31448096
164	0xbf1a9883	-0.60388964
165	0xbf666ef9	-0.9001308
166	0xbf88084c	-1.0627532
167	0xbe9a9d4b	-0.3019813
168	0x3f9eb262	1.2398188
169	0xbf6d7f08	-0.9277196
170	0xbf4a68df	-0.7906627
171	0xbf0126a9	-0.50449616
172	0x3dd66a9a	0.104695514
173	0xbe216c2d	-0.15763922
174	0xbf228925	-0.63490516
175	0x3ead81e0	0.3388815
176	0x3dbdeb9c	0.092734545
177	0x3da057a9	0.0782922
178	0xbf0eb334	-0.5574219
179	0xbe5ee37c	-0.21766466
180	0xbeb794e1	-0.35855773
181	0x3e6b1dda	0.22960606
182	0xbe862fe5	-0.26208416
183	0xbe18c140	-0.14917469
184	0xbdfd05c4	-0.12354615
185	0xbf1fbb84	-0.623955
186	0x3ca43fbb	0.02004992
187	0xbeb5eab5	-0.3553063
188	0x3f54f190	0.83181095
189	0xbeeda48e	-0.46414608
190	0xbf06d64d	-0.5267075
191	0x3f9d2ddf	1.2279624
192	0xbf44b6e9	-0.768416
193	0xbf2f3f63	-0.68456095
194	0xbf2681fe	-0.650421
195	0xbe83970a	-0.2570117
196	0xbf81cf5b	-1.0141405
197	0xbeaca8ce	-0.33722538
198	0xbea45cbd	-0.32102004
199	0x3f0141f2	0.5049125
200	0xbf2a0266	-0.6640991
201	0xbe45083e	-0.19241425
202	0x3f793ef8	0.9736171
203	0xbf21852a	-0.6309382
204	0xbf2383f0	-0.63873196
205	0x3e92e0f6	0.28687257
206	0xbe48657e	-0.19569966
207	0xbf30222e	-0.68802154
208	0x3d7ae808	0.06125644
209	0xbef9bd92	-0.48777443
210	0x3e7ebfbe	0.24877831
211	0x3f355a8f	0.70841306
212	0x3f672fcb	0.903073
213	0x3f04faa7	0.51944965
214	0x3f9b469f	1.2130927
215	0xbf6125b1	-0.8794814
216	0xbe0e96fa	-0.1392478
217	0xbe386d7d	-0.18010516
218	0xbe716925	-0.23575266
219	0xbf248e0c	-0.64279246
220	0x3e22f0f9	0.15912236
221	0x3d8f4540	0.0699563
222	0x3c78bae4	0.015181277
223	0xbee477da	-0.4462269
224	0xbdbb08e8	-0.09132558
225	0xbf80ff8e	-1.0077989
226	0xbe4b03e2	-0.198257
227	0xbfa0d026	-1.2563522
228	0xbefa2c09	-0.4886172
229	0xbf0eb005	-0.55737334
230	0xbf2a1b57	-0.6644797
231	0xbe53d45d	-0.20686479
232	0xbdc7194f	-0.09721624
233	0xbeba4719	-0.36382368
234	0xbf3e2f05	-0.74290496
235	0x3f0ab487	0.5418171
236	0xbf2445a8	-0.64168787
237	0xbef2a6ff	-0.47393033
238	0x3eddc95b	0.43317685
239	0xbea0ef0d	-0.3143238
240	0xbeaafcbe	-0.33395952
241	0x3a29f21e	0.00064829167
242	0xbf7cb0ea	-0.9870745
243	0xbf142231	-0.5786467
244	0xbf00ff58	-0.50389624
245	0xbfc359e0	-1.5261803
246	0xbcf67ba2	-0.03008825
247	0x3e138d71	0.14409424
248	0x3da6b3ae	0.0813974
249	0xbd5f262a	-0.054479755
250	0x3f216fec	0.63061404
251	0xbf92e5b7	-1.1476353
252	0x3e1149ec	0.14188355
253	0xbe960884	-0.29303372
254	0xbd9695fc	-0.07352826
255	0xbe3fc17b	-0.1872615

fc2.weight f4 [300, 401]
0	0x3dbec4df	0.09314894
1	0x3d0f13c3	0.034930956
2	0x3d8461e8	0.06463987
3	0x3c1f656b	0.00972877
4	0x3da22aee	0.079183444
5	0x3d3ab50b	0.045582812
6	0xbc406b61	-0.011744351
7	0xbda9c0b0	-0.08288705
8	0x3d270c10	0.040782988
9	0x3d89e7a2	0.067336336
10	0x3c143c12	0.009047525
11	0x3d19d16e	0.037553243
12	0xbd5f5967	-0.05452862
13	0xbd212bb4	-0.03934832
14	0x3cd4a861	0.025959196
15	0xbd6051b5	-0.054765422
16	0x3d982445	0.07428793
17	0xbc3050a5	-0.010761415
18	0xbdd150e2	-0.10220505
19	0xbdecaec1	-0.11556769
20	0x3d0aea12	0.033914633
21	0x39e1d79c	0.00043075986
22	0xbcea7c2f	-0.028623668
23	0x3d85390d	0.06505022
24	0xbc8d2631	-0.017230125
25	0xbd2d9f6e	-0.042388372
26	0x3e07c497	0.13258587
27	0xbc153bc4	-0.0091084875
28	0x3aa6f9b7	0.0012739216
29	0xbcdb5e57	-0.026778383
30	0x3bf8af49	0.007589255
31	0xbdf70b27	-0.12062674
32	0xbc8679c9	-0.016415494
33	0xbdb7b88d	-0.08970747
34	0xbc4d7314	-0.012539644
35	0x3b857e1c	0.0040738713
36	0xbc354fb8	-0.01106637
37	0xbdb41bdc	-0.08794376
38	0xbd48c9ef	-0.049020704
39	0x3d70acd0	0.058758557
40	0x3c951091	0.018196376
41	0x3de4e7d0	0.11177027
42	0xbc8f3d6a	-0.01748534
43	0xbe092dd2	-0.13396385
44	0xbe7a9a44	-0.2447291
45	0xbd25d24a	-0.04048375
46	0x3c68e999	0.01421585
47	0xbd87827a	-0.06616683
48	0x3d326513	0.043553423
49	0xbdd93a00	-0.10606766
50	0xbdca2987	-0.09871202
51	0xbd9d82f9	-0.07690997
52	0xbe01ef6d	-0.1268899
53	0xbd4050b5	-0.04695197
54	0x3cf99737	0.030467613
55	0xbd85fbfd	-0.065422036
56	0xbdd6a557	-0.10480755
57	0xbd5d6aa9	-0.054056797
58	0xbe001652	-0.12508515
59	0xbdaa9354	-0.08328882
60	0x3cb76b7d	0.022390122
61	0x3c1b695c	0.009485569
62	0x3d1abe4d	0.03777914
63	0xbc8b1bfa	-0.016981114
64	0xbe0a7a0e	-0.13523123
65	0xbc7dd89a	-0.015493536
66	0xbd64f0bc	-0.055893645
67	0xbc8ce949	-0.017201083
68	0xbd980ef4	-0.07424727
69	0xbcf30de8	-0.029669717
70	0xbe448891	-0.19192721
71	0x3d9665d7	0.07343643
72	0xbc885857	-0.016643686
73	0x3bd38a96	0.0064557297
74	0xbd1c2cdd	-0.038128722
75	0xbcf14675	-0.029452542
76	0x3c9491fe	0.01813602
77	0x3c139120	0.009006768
78	0xbe016ef7	-0.12639986
79	0xbdd33855	-0.10313479
80	0xbdbc6dd3	-0.09200635
81	0x3b7b3fe8	0.0038337652
82	0x3cd3c672	0.025851462
83	0xbd2dc2b2	-0.042422004
84	0xbe9615ea	-0.29313594
85	0xbe3f0af5	-0.18656524
86	0xbcc13566	-0.023585033
87	0xbc96e72b	-0.018420776
88	0xbdfb384b	-0.122665964
89	0xbd2570df	-0.040390845
90	0xbe525a5b	-0.2054228
91	0xbd8df866	-0.06932144
92	0xbdbf88eb	-0.09352287
93	0x3db29d12	0.08721365
94	0xbd7c3466	-0.06157341
95	0xbc9cb112	-0.019127402
96	0xbbe155b6	-0.0068766726
97	0x3c9da9f5	0.01924608
98	0x3d560937	0.05225488
99	0x3ddcaf9e	0.10775684
100	0xbcdf7030	-0.027275175
101	0xbdb5819a	-0.0886261
102	0xbcca44cb	-0.024691006
103	0xbd275e80	-0.040861607
104	0xbe0f2e3c	-0.13982481
105	0xbdfb928e	-0.122838125
106	0x3d0bdc95	0.03414591
107	0xbdb38e18	-0.087673366
108	0xbd63295f	-0.055459376
109	0xbd281eb2	-0.0410449
110	0xbc71b807	-0.014753348
111	0xbd1a9128	-0.037736088
112	0x3d2c161f	0.042013284
113	0xbdbb7ecb	-0.09155043
114	0xbdab3ced	-0.0836123
115	0xbe060252	-0.13086823
116	0xbdc82368	-0.09772378
117	0xba0389e6	-0.0005017802
118	0x3d209c8f	0.039211806
119	0xbd0a164f	-0.03371268
120	0xbba68a05	-0.005082371
121	0x3ccbbda3	0.0248707
122	0x3d13064f	0.03589469
123	0xbdb30ded	-0.087428905
124	0xbd5f9bfd	-0.05459212
125	0x3c8a9479	0.0169165
126	0x3c332926	0.0109351035
127	0xbdefdb0d	-0.117117025
128	0x3d6c6f86	0.057723545
129	0xbdc0994c	-0.09404239
130	0x3d4e9e61	0.05044401
131	0x3b599c40	0.0033204705
132	0xbdfb2b58	-0.122641265
133	0xbc73ba7a	-0.014876002
134	0xbc35b48f	-0.011090412
135	0xbdb1f3db	-0.0868909
136	0x3ca70975	0.020390252
137	0xbd8da672	-0.069165125
138	0x3d8e2fe8	0.06942731
139	0x3cf46f57	0.029838247
140	0xbd9fe592	-0.07807459
141	0x3d16c784	0.036811367
142	0xbd03ee41	-0.03220964
143	0x3d69841d	0.05701076
144	0xbd92dcef	-0.07171046
145	0xbd5fe433	-0.054660987
146	0xbc3a2bd7	-0.011362991
147	0x3e0fd09c	0.14044422
148	0xbc1a73ca	-0.00942702
149	0xbac570fe	-0.0015063582
150	0xbcea9766	-0.028636646
151	0xbdf78d27	-0.120874695
152	0xbd911853	-0.070847176
153	0x3d9a5a26	0.07536726
154	0xbd0eae17	-0.034833994
155	0xbe1c673d	-0.15273757
156	0xbdde9675	-0.10868541
157	0xbd97db2f	-0.07414853
158	0xbd96e101	-0.07367135
159	0x3c9f3d32	0.01943836
160	0xbec87012	-0.39148003
161	0xbe21fca3	-0.1581903
162	0x3c6b50b9	0.0143625075
163	0x3cad2fd1	0.021140965
164	0x3d6cec8a	0.05784277
165	0xbd2ef466	-0.042713545
166	0xbd67fccf	-0.05663758
167	0x3c786582	0.01516092
168	0xbda81bd2	-0.08208431
169	0x3d5dc0a9	0.054138813
170	0xbaf5a1e3	-0.0018740263
171	0x3ccba222	0.024857584
172	0x3c068d98	0.0082124695
173	0xbe483835	-0.19552691
174	0xbd0b5f95	-0.0340267
175	0xbd9ab1b9	-0.07553429
176	0xbf0b6eeb	-0.5446612
177	0x3d95f7b5	0.07322637
178	0x3cfb7a42	0.030697946
179	0xbda65dda	-0.081233695
180	0xbd05781f	-0.03258526
181	0x3d5e62e8	0.054293543
182	0xbddc1b05	-0.10747341
183	0x3dc93d44	0.098261386
184	0x3cdfebc8	0.027334109
185	0xbde20db1	-0.11037768
186	0x3b218243	0.0024644292
187	0xbd53f884	-0.051750675
188	0x3d0cf6bd	0.034414995
189	0xbcce3993	-0.025173938
190	0xbeabc0ba	-0.33545476
191	0xbdc4d0cf	-0.096101396
192	0x3d14cae8	0.03632632
193	0xbd9a1eb2	-0.07525386
194	0xbcc1877c	-0.023624174
195	0xbe3e6319	-0.1859249
196	0xbd029f6d	-0.03189032
197	0xbcf84359	-0.030305551
198	0x3d979f35	0.07403413
199	0xbdf7017b	-0.12060829
200	0xbe021d68	-0.1270653
201	0xbd88a410	-0.066719174
202	0xbcff672c	-0.031177126
203	0x3ccce8dc	0.02501338
204	0xbe350477	-0.17677484
205	0xbd360a67	-0.044443514
206	0xbd91a0ad	-0.071107246
207	0xbc8f1d0f	-0.01746991
208	0x3ba52a56	0.005040447
209	0xbdb702e9	-0.08936102
210	0x3da1aa0e	0.078937635
211	0xbcab038e	-0.020875718
212	0xbde81cf2	-0.11333646
213	0x3cb777dc	0.02239602
214	0xbd2b8d96	-0.041883074
215	0xbd9c9e3c	-0.07647368
216	0xbe10a049	-0.14123644
217	0xbd11ab84	-0.03556396
218	0xbd74ec09	-0.059795413
219	0xbd21cc27	-0.039501335
220	0xbdd02882	-0.10163976
221	0xbe6fa83e	-0.23404023
222	0xbb59c04a	-0.0033226185
223	0xbc5b0fd1	-0.01337047
224	0xbd5b49eb	-0.05353729
225	0xbc16c3c2	-0.009201946
226	0xbea5e9b6	-0.3240487
227	0xbcb5c588	-0.022188917
228	0xbde26bbc	-0.11055705
229	0xbd5c9f5c	-0.053862914
230	0xbd23c181	-0.03997946
231	0x3c0c0ffb	0.008548732
232	0xbc9e740c	-0.019342445
233	0xbcbf3072	-0.02333853
234	0x3b32bfbe	0.0027274932
235	0xbd6c7f66	-0.057738684
236	0xbddb879f	-0.10719227
237	0xbbdbc122	-0.006706373
238	0xbd17b57f	-0.037038323
239	0x3d7e54ab	0.062092464
240	0xbd5998f0	-0.05312437
241	0x3da37c29	0.07982666
242	0xbebe3c8d	-0.37155572
243	0xbd65cc51	-0.056103054
244	0xbd7014f1	-0.05861372
245	0x3d79f2e1	0.061022643
246	0xbd3f4a8e	-0.04670196
247	0xbdc78c87	-0.097436
248	0xbd5a70e9	-0.053330336
249	0xbd86fdd0	-0.0659138
250	0xbd392707	-0.045203235
251	0xbd7696af	-0.060202297
252	0xbd464e7b	-0.04841469
253	0xbcea6596	-0.028612893
254	0xbdc707bd	-0.09718273
255	0x3d32f414	0.043689802

fc2.bias f4 [300]
0	0xbcf50dd7	-0.029913826
1	0x3e94a9ca	0.2903579
2	0x3d7cd783	0.061728965
3	0x3e4ef7c8	0.20211709
4	0xbb505556	-0.0031789145
5	0x3db2818a	0.08716114
6	0x3e8dcca9	0.27695206
7	0x3fe55d2c	1.7919059
8	0x3f745751	0.95445734
9	0x3ce88a4d	0.02838626
10	0xbb9fa414	-0.0048718546
11	0xbd98855c	-0.07447311
12	0x3f73fc97	0.95307297
13	0x3f6670c4	0.90015817
14	0xbcee69db	-0.02910321
15	0x3f244c52	0.64178956
16	0x3fab0f66	1.3364074
17	0x3e387952	0.1801503
18	0xbda31a88	-0.07964045
19	0xbc804d0c	-0.015661739
20	0x3e910309	0.28322628
21	0xbe512d24	-0.20427376
22	0xbe095fad	-0.13415404
23	0xbd882dc3	-0.06649353
24	0xbea6c534	-0.3257233
25	0x3df3af73	0.11898699
26	0x3f5f6d4b	0.8727614
27	0xbe81e68a	-0.253712
28	0xbe1d25a0	-0.15346384
29	0x3f29029f	0.66019624
30	0x3c2a33d7	0.010388336
31	0xbdc50dcc	-0.09621772
32	0x3d0e884e	0.03479796
33	0x3cc3f7de	0.023921903
34	0xbc4da13d	-0.012550649
35	0xbd450f75	-0.048110444
36	0xbd12b60c	-0.035818145
37	0xbccdf4c0	-0.02514112
38	0x3f43eab7	0.7653002
39	0x3f0844dd	0.5323008
40	0xbcc4b683	-0.02401281
41	0xbc137462	-0.008999916
42	0x3eab4843	0.3345357
43	0x3f26d167	0.6516327
44	0xbd3910e6	-0.04518213
45	0xbca37701	-0.019954206
46	0x3ec3ec20	0.38266087
47	0x3dc62602	0.09675218
48	0x3c4bf5ea	0.012448767
49	0x3f8afec5	1.0859
50	0xbd267caf	-0.04064625
51	0xbeb23ae3	-0.34810552
52	0x3f75fedc	0.9609201
53	0x3f0f6dca	0.560269
54	0x3f845b21	1.034031
55	0x3ed409d4	0.41413748
56	0xbd1de8f1	-0.03855223
57	0x3f50b35c	0.8152368
58	0xbeeae004	-0.45874035
59	0xbb1a9d78	-0.0023592394
60	0x3e2506af	0.16115831
61	0xbcddc1fd	-0.02707004
62	0xbcebecde	-0.02879947
63	0x3ea0b0ea	0.31384975
64	0x3cb2185d	0.021740133
65	0xbca3c191	-0.01998976
66	0xbc493925	-0.012281691
67	0xbe718545	-0.23585995
68	0xbcec7a7f	-0.028867004
69	0x3eb5282b	0.35382208
70	0x3f9810a3	1.1880077
71	0x3f209082	0.627205
72	0xbe29886a	-0.16555944
73	0x3da717b6	0.081588194
74	0xbd0ef2ff	-0.034899708
75	0xbcf45ead	-0.029830301
76	0x3ecc2f15	0.3987967
77	0x3f014bee	0.50506485
78	0xbe1068a8	-0.14102423
79	0x3f80cd0a	1.0062573
80	0x3f949005	1.1606451
81	0x3fd141b9	1.6348182
82	0xbd820feb	-0.06350692
83	0x3ef0342d	0.46914807
84	0x3d288ea9	0.041151676
85	0x3e5c4253	0.21509676
86	0xbd447972	-0.04796738
87	0xbc22b2be	-0.009930311
88	0x3ea9b838	0.3314836
89	0xbe177b5e	-0.14793155
90	0xbc97dc84	-0.018537767
91	0x3b919c91	0.004443713
92	0x3ee62d1f	0.449563
93	0x3e62a566	0.22133407
94	0x3cbaf37a	0.022821177
95	0xbcfeb517	-0.03109221
96	0xbd861b2a	-0.0654815
97	0xbdd54353	-0.10413232
98	0x3f4ab6d1	0.79185206
99	0xbf5c7c49	-0.86127144
100	0x3f14a7df	0.5806865
101	0x3f0725b5	0.5279191
102	0x3f80a812	1.0051291
103	0x3f8826bc	1.0636821
104	0xbd2fbb30	-0.042903125
105	0x3ebfba7c	0.37446964
106	0xbd781467	-0.060566332
107	0xbd4a8edd	-0.04945265
108	0x3ef79dce	0.48362583
109	0x3e67c2f4	0.22632962
110	0x3c2cd070	0.010547742
111	0xbc4f939b	-0.012669469
112	0xbe5f398a	-0.21799293
113	0x3d8f750b	0.07004746
114	0x3ece83eb	0.4033502
115	0x3f841dd3	1.0321602
116	0xbd7969a4	-0.060891762
117	0xbd7ec160	-0.062196136
118	0x3ee0cfc8	0.43908525
119	0xbd94498c	-0.072405905
120	0xbeb28981	-0.34870532
121	0x3fad4010	1.3535175
122	0x3f577528	0.8416314
123	0x3e30bbb2	0.172591
124	0x3e94f882	0.29095846
125	0x3f747156	0.95485437
126	0x3ec97356	0.39345807
127	0xbd56917c	-0.05238484
128	0x3fa0f9a7	1.2576188
129	0x3f3c6604	0.73593163
130	0x3b9b1c94	0.0047336314
131	0x3e9b582b	0.30340704
132	0x3d98b472	0.07456292
133	0x3ebb672c	0.3660215
134	0xbd03d107	-0.032181766
135	0x3b6ba5f3	0.0035957068
136	0x3e3dbbb8	0.1852864
137	0xbbe89e45	-0.0070989453
138	0x3b241ed8	0.0025042798
139	0x3f60ba2d	0.8778408
140	0x3f4cb149	0.79958016
141	0x3c454747	0.01204092
142	0x3fa7fa68	1.3123293
143	0xbd3d6a73	-0.046244096
144	0x3cd37ae8	0.025815442
145	0x3fa03d6f	1.2518748
146	0x3c975915	0.018475095
147	0x3f5c5255	0.8606313
148	0xbcdd146b	-0.026987275
149	0x3e986428	0.29763913
150	0x3f7fa114	0.9985516
151	0xbd70a862	-0.058754332
152	0x3e0df837	0.13864218
153	0x3e816771	0.25274232
154	0x3ec563ea	0.3855279
155	0x3e9284d1	0.28616956
156	0xbd5b3961	-0.053521518
157	0x3e721a1c	0.23642772
158	0xbd07117e	-0.032975666
159	0x3f38592a	0.72011054
160	0x3d58f10f	0.052964266
161	0xbd17164f	-0.03688651
162	0x3f9302c5	1.148522
163	0xbd85503c	-0.06509444
164	0x3f5b8ef2	0.8576499
165	0x3e9e47dc	0.309142
166	0xbd622850	-0.055214226
167	0x3d06e883	0.032936584
168	0x3f2151a4	0.630152
169	0x3f76709a	0.96265566
170	0x3bdbe6ca	0.006710862
171	0x3f03f3a1	0.51543623
172	0x3f346a1e	0.7047442
173	0xbd576695	-0.052588064
174	0x3c22e9b3	0.009943414
175	0x3f09e2d9	0.5386177
176	0xbe1e1ffb	-0.15441887
177	0xbd65a814	-0.056068495
178	0x3f8a1d5d	1.0790211
179	0xbcd18d21	-0.02557999
180	0x3ddf453b	0.109018765
181	0xbce5d16a	-0.028053958
182	0xbde4cf36	-0.11172335
183	0xbe115d8b	-0.1419584
184	0xbd4b83cd	-0.049686242
185	0xbd6d4289	-0.05792478
186	0x3d048003	0.032348644
187	0xbd2692a0	-0.040667176
188	0x3f3c29f7	0.73501533
189	0x3f0b9e75	0.5453866
190	0xbd0c447c	-0.034245
191	0x3e7b39c3	0.24533753
192	0x3f17895f	0.59193987
193	0x3f6d5bdb	0.92718285
194	0x3f468f4b	0.775624
195	0x3fb68269	1.4258548
196	0x3ddb0394	0.10694042
197	0xbda18e2f	-0.078884475
198	0x3f5bcf19	0.8586288
199	0x3f29b8c7	0.6629757
200	0x3e78b624	0.24288231
201	0x3ec81465	0.3907806
202	0xbd8b02c9	-0.067876406
203	0x3e6b7c0e	0.22996542
204	0x3e362ec5	0.17791279
205	0x39dca160	0.00042081904
206	0xbd5e3bba	-0.05425618
207	0x3ea71ef6	0.3264081
208	0x3f39fd25	0.7265189
209	0x3f789b14	0.9711163
210	0xbd0afebc	-0.03393434
211	0x3ec7f15b	0.39051327
212	0x3e9a2f80	0.30114365
213	0xbd1d7f73	-0.038451623
214	0x3f23c0c8	0.63966036
215	0x3f0f4b95	0.55974704
216	0x3fc6e60d	1.5538956
217	0x3fa32361	1.2745172
218	0x3ea0f6a4	0.31438172
219	0xbd6d367a	-0.05791328
220	0xbce21b2f	-0.027600853
221	0xbcb3c63b	-0.02194511
222	0xbc9fcd31	-0.019507023
223	0x3ba6654c	0.0050779935
224	0x3b745abd	0.003728553
225	0xbe79e383	-0.24403195
226	0x3f5f480c	0.8721931
227	0x3ee75231	0.45179895
228	0x3c835129	0.016029911
229	0x3f9fb57f	1.2477263
230	0xbcd22fb0	-0.025657505
231	0x3f00a1a5	0.5024665
232	0x3edb2f6e	0.42809623
233	0xbd3e029a	-0.0463892
234	0x3cef8043	0.029235965
235	0x3c86d870	0.016460627
236	0xbd13040f	-0.035892542
237	0xbc5795ee	-0.013158305
238	0x3e8a8f19	0.270623
239	0x3d1d4658	0.038397163
240	0x3f73f8a6	0.9530128
241	0x3f087623	0.5330526
242	0xbcc8059b	-0.024416735
243	0x3ef8f182	0.48621756
244	0xbd3765ab	-0.044774693
245	0x3f89c68b	1.0763716
246	0x3f99eead	1.2025963
247	0xbd227d7d	-0.039670456
248	0x3f05dc0c	0.5228889
249	0x3edb8708	0.42876458
250	0x3ed6feb6	0.41991204
251	0x3fa77f6e	1.3085763
252	0x3c0a64df	0.008446901
253	0x3d3c207c	0.045929417
254	0xbdacde28	-0.084408104
255	0x3f15b934	0.5848572

fc3.weight f4 [1, 300]
0	0x3d259f0f	0.040434893
1	0x3f892099	1.0713073
2	0x3f4cc4dc	0.79987884
3	0xbd3a4080	-0.04547167
4	0x3d2f6299	0.04281864
5	0xbed8ec70	-0.42367887
6	0xbbd27128	-0.0064221807
7	0xbdfeac88	-0.124352515
8	0xbc116515	-0.0088741975
9	0x3e38dcb7	0.18052946
10	0x3d0f5624	0.03499426
11	0x3c78be1c	0.015182044
12	0x3ec32c5d	0.38119784
13	0xbcb6fd53	-0.022337591
14	0x3d34d74d	0.04415064
15	0x3ea5ee99	0.32408598
16	0xbe442ae3	-0.19156985
17	0xbf1e368e	-0.61801994
18	0x3dfbf29f	0.12302136
19	0x3dfc2278	0.12311262
20	0xbecf155c	-0.40445983
21	0x3d816b6f	0.063193195
22	0xba231b9c	-0.00062220707
23	0x39d386f0	0.00040345592
24	0x3f7e2896	0.9928068
25	0x3e59613b	0.21228497
26	0x3a491b38	0.00076715974
27	0x3d45fced	0.048336912
28	0xbb477376	-0.003043381
29	0xbce6c647	-0.028170718
30	0x3d2af00e	0.04173284
31	0x3de173d2	0.11008419
32	0x3c92873a	0.017886747
33	0x3ca6ea0b	0.020375272
34	0xba35aae0	-0.00069300644
35	0xbba0bc5a	-0.0049052658
36	0x3d05773e	0.03258442
37	0x3d890b20	0.06691575
38	0xbeba266e	-0.36357445
39	0xbdd9a69e	-0.10627483
40	0xba4ea6ce	-0.0007883132
41	0x3a44cda6	0.00075074506
42	0x3f9d375a	1.2282517
43	0xbe66f639	-0.22554864
44	0xbe4aa32c	-0.19788808
45	0x3dd84482	0.10559942
46	0xbf154246	-0.5830425
47	0xbd0b3526	-0.033986233
48	0x3ce8cc66	0.028417777
49	0xbf5e441d	-0.8682268
50	0xbd29a348	-0.041415483
51	0x3d42c9f8	0.047555894
52	0x3ecae6bf	0.3962917
53	0x39adab08	0.0003312456
54	0xbe4eb379	-0.20185651
55	0x3d37dafe	0.04488658
56	0xba437f4c	-0.00074576284
57	0x3eba1193	0.36341533
58	0x3ea71e4f	0.3264031
59	0xbd55501d	-0.052078355
60	0xbe9d0db7	-0.30674526
61	0x3c15ad3c	0.009135541
62	0x3c8ed7e8	0.017436936
63	0x3f589e5c	0.8461664
64	0x3cec2c67	0.028829766
65	0x3b932388	0.0044903196
66	0x3b837191	0.004011341
67	0x3f0985a3	0.5371954
68	0x3d356745	0.04428794
69	0x3cbcea0a	0.023060817
70	0xbeb72ee0	-0.3577795
71	0xbbf2a520	-0.0074049383
72	0x3d859ce1	0.06524063
73	0x3de33f0a	0.11096008
74	0x3c9e9d0d	0.019361997
75	0xbd275b62	-0.040858634
76	0xbebb9909	-0.36640194
77	0x3f2bff92	0.67186844
78	0x3cc83282	0.024438147
79	0x3ce89c8d	0.028394962
80	0xbeb51aa4	-0.35371888
81	0xbe1d5687	-0.15365039
82	0x38b92b30	8.829532e-05
83	0x3cda0a3f	0.026616214
84	0xbd2dbde0	-0.042417407
85	0x3f8354b0	1.026022
86	0x39810390	0.00024607452
87	0x39b036a0	0.00033610035
88	0xbe879afb	-0.26485428
89	0x3dd92ade	0.106038794
90	0x3d4061dd	0.04696833
91	0x3c6956ef	0.014241918
92	0xbedefc87	-0.43552038
93	0xbeface62	-0.48985583
94	0x3f0c3846	0.54773366
95	0x3d93137c	0.07181451
96	0x3bd4d9a8	0.006495673
97	0x3ec608c6	0.3867857
98	0x3fa85463	1.3150753
99	0x3e1a4821	0.15066577
100	0xbe918983	-0.28425226
101	0xbe764288	-0.24048817
102	0xbf17ccbc	-0.59296775
103	0xbf7af099	-0.9802337
104	0x3b733306	0.003710927
105	0xbf02a0a7	-0.51026386
106	0x3d733e30	0.05938548
107	0x3cf21f12	0.029555831
108	0xbefd5252	-0.49476868
109	0xbd4695cd	-0.048482705
110	0x3cfe1cf4	0.031019665
111	0x3cb1e38d	0.02171495
112	0x3dee1166	0.11624412
113	0x3dd3afa2	0.10336234
114	0xbc7a7bf4	-0.015288342
115	0xbe452c4c	-0.19255179
116	0x3c73ba9a	0.014876032
117	0x3ca0ba26	0.019620012
118	0x3f990c7a	1.1956933
119	0x3c8cc398	0.01718311
120	0x3d872c05	0.06600193
121	0xbf22d98b	-0.63613194
122	0xbdc269e4	-0.09492853
123	0x3f77e94c	0.9684036
124	0x3fff9bbc	1.9969401
125	0x3eb76af8	0.35823798
126	0x3ed1d688	0.40983987
127	0xba34b92a	-0.00068940467
128	0xbdc40b68	-0.09572488
129	0x3f7caa83	0.9869768
130	0x3d3d302b	0.046188515
131	0x3f03c445	0.5147136
132	0x3e033aaf	0.12815355
133	0x3ec98c3e	0.3936481
134	0x3b8df9dc	0.004332764
135	0x3dfe7a22	0.12425639
136	0x3d889967	0.06669884
137	0xb9a6c1dc	-0.00031806424
138	0x3c097f08	0.008392103
139	0x3ebf6a02	0.37385565
140	0xbef96256	-0.48707837
141	0x3e16239f	0.14662026
142	0xbd27346c	-0.040821478
143	0xbc80f47b	-0.015741577
144	0x3d015ee4	0.031584635
145	0xbca0e8f9	-0.01964234
146	0x3abf4fc6	0.0014595918
147	0xbea361f9	-0.31910685
148	0x3d2c7c7a	0.042110898
149	0xbe809b14	-0.25118315
150	0x3f23dba7	0.6400704
151	0x382c11a0	4.102441e-05
152	0x3f41f136	0.75758684
153	0x3f357585	0.70882446
154	0xbef20a49	-0.47273472
155	0xbdec812d	-0.11548076
156	0xbaca21af	-0.0015421415
157	0x3e79cea7	0.24395238
158	0x3d4e3dd9	0.05035195
159	0xbe2e2f49	-0.17010225
160	0x3f8c3114	1.0952477
161	0x3bcaa453	0.0061841398
162	0x3e9bfb3d	0.30465117
163	0x3d50f4c4	0.051014677
164	0xbe8eebd9	-0.27914312
165	0xbf032b4b	-0.51237935
166	0x3c2c58a2	0.010519179
167	0xbe47ec04	-0.19523627
168	0xbf080cfe	-0.53144825
169	0xbe33140f	-0.1748812
170	0x3d050309	0.032473598
171	0xbe945606	-0.2897188
172	0xbe19d99e	-0.1502442
173	0x3e1ae559	0.15126552
174	0x3c92fe1c	0.017943434
175	0xbf435834	-0.7630646
176	0x3da4e942	0.08052303
177	0x3d216fff	0.03941345
178	0xbe3daa93	-0.185221
179	0x3d1e07dd	0.038581718
180	0xbe1fe2df	-0.15613888
181	0x3c72f6be	0.014829336
182	0xba135ecc	-0.0005621731
183	0x3c262940	0.010141671
184	0xb984224c	-0.00025202555
185	0xbc081dee	-0.008307917
186	0x3e6bbc54	0.2302106
187	0x3a65fa1e	0.0008772927
188	0xbd461e14	-0.04836853
189	0xbec5c483	-0.3862649
190	0xbca5bb4c	-0.020230912
191	0xbec4a129	-0.38404205
192	0x3dbd59f4	0.09245673
193	0xbf0bc454	-0.5459645
194	0xbf4c9f6a	-0.79930747
195	0xbea36625	-0.31913868
196	0xbaf87687	-0.0018956222
197	0x3c526bd2	0.012843089
198	0x3f34d22e	0.7063321
199	0xbf206767	-0.6265778
200	0xbf4b6e66	-0.7946533
201	0xbe8ee33b	-0.27907738
202	0x3cd95f49	0.026534693
203	0xbdd542d4	-0.10413137
204	0xbca3c61e	-0.01999193
205	0x3d3aec73	0.04563565
206	0xba2630e4	-0.0006339683
207	0x3f306042	0.6889688
208	0xbeb8130b	-0.3595203
209	0xbfa86d9d	-1.3158451
210	0xba6beac2	-0.000899952
211	0xbd8b1765	-0.067915715
212	0x3e261b80	0.16221428
213	0x3d3229f4	0.04349704
214	0xbea55797	-0.32293388
215	0xbdf7e628	-0.12104446
216	0xbf93bffe	-1.1542966
217	0x3c216caf	0.009852572
218	0xbef8c164	-0.48585045
219	0x3d0f6b59	0.035014484
220	0x3da47896	0.080308124
221	0x3d1e9fa5	0.038726468
222	0x3c4cd937	0.01250296
223	0x3ca8cc73	0.020605301
224	0x3dc760fc	0.09735295
225	0x3e0a29f3	0.13492565
226	0xbeb04887	-0.34430334
227	0xbf0f9a64	-0.56094956
228	0xb9518cc0	-0.00019984227
229	0xbdfaed3e	-0.122522816
230	0x3d452ad3	0.048136543
231	0x3f14c02a	0.5810572
232	0xbed50f3d	-0.41613188
233	0x3db22272	0.08697976
234	0x3f72d59f	0.9485721
235	0x3d03a0fb	0.032135945
236	0x3cf9deb4	0.030501701
237	0x3cdb0ebc	0.026740424
238	0x3f560bd2	0.83611786
239	0x3e2249bc	0.1584844
240	0xbdbe66e4	-0.092969686
241	0xbe16bb99	-0.1472
242	0x3d2389a0	0.03992617
243	0x3e75d3e9	0.24006619
244	0x3e1ff0ee	0.15619251
245	0xbf3ac697	-0.72959274
246	0xbe723856	-0.23654303
247	0x3d3f0cce	0.04664307
248	0xbe03d606	-0.12874612
249	0xbe86a569	-0.26298073
250	0x3e8635ee	0.2621302
251	0xbc8702dc	-0.016480856
252	0x3ccb200b	0.024795553
253	0x3d028457	0.03186449
254	0xbc6a5d2d	-0.014304441
255	0x3abda409	0.0014468442
